default_reward/model.pth (torch, 694959 bytes, 10 tensors)

fc1.weight f4 [512, 8]
000000 53 c5 30 bd d2 86 42 be 97 cb 8c 3c 2b ed e5 3d
       -0.043156933 -0.18996742 0.017186923 0.11226877
000010 c4 89 0a 3e 2d 66 05 bf 55 3a f8 b8 96 d1 ad bd
       0.13529116 -0.5210903 -0.00011836427 -0.08487241
000020 53 bf e9 3e f0 3c c9 3d 09 a2 e8 bd 95 92 12 3f
       0.4565378 0.09826076 -0.11359031 0.57254916
000030 80 ab a4 3c 80 b8 bb 3a 0c 54 b6 bd f4 97 71 3e
       0.020101309 0.0014321953 -0.089027494 0.23593122
000040 2a d2 8e 3e 86 c9 6a 3e d8 a3 a6 be 33 33 0a bd
       0.27894717 0.22928438 -0.32546878 -0.033740234
000050 31 8b 1c 3f 7c ac 53 be 31 8a 95 be f3 9e 0c 3f
       0.6114989 -0.20671266 -0.29206994 0.5493004
000060 2c da 89 3e 90 34 8a bf 9e 1c 11 bf ed 22 3b 3f
       0.26924264 -1.0797291 -0.5668429 0.7310017
000070 15 e7 f1 3d d4 f1 53 bc 44 1c 01 3e 30 82 a3 3e
       0.118116535 -0.012936074 0.12608439 0.31935263
000080 af 7f 09 be aa 5c 08 be 8b b4 f7 bb 9b f2 9e be
       -0.13427614 -0.13316599 -0.007559364 -0.31044468
000090 bf 75 09 3f 79 26 fb 3d 97 84 93 be 93 3d 4f 3e
       0.5369529 0.122631975 -0.28812096 0.20238332
0000a0 67 9c a2 3d 55 81 2f be a0 27 f4 bd 3e 87 9d be
       0.07939988 -0.1713918 -0.1192162 -0.30767244
0000b0 3d 57 de 3d 72 59 bc bc 01 6a 5e 3d 7d e6 fa be
       0.10856483 -0.02299187 0.054300312 -0.49003974
0000c0 11 64 86 bd db 5c f0 3d 5b 9b 6e 3e 22 e4 5c 3f
       -0.06562055 0.11736461 0.23301451 0.86285603
0000d0 88 06 10 3e f9 b7 cd 3e b8 f4 30 3e 9c 49 52 bf
       0.14064991 0.40179422 0.17280853 -0.8214357
0000e0 72 f7 04 bf 90 50 90 3e da bc 3c bb b8 9e 8b 3d
       -0.5194007 0.28186464 -0.0028799088 0.068173826
0000f0 a7 09 4b 3e ee 79 85 be e6 19 f2 3c e2 6d ca 3e
       0.19827901 -0.26069587 0.029553365 0.3953696
000100 73 05 b8 bd c4 47 d4 3d 6b c2 47 be 19 91 3b 3e
       -0.08985414 0.10365251 -0.19507758 0.18317069
000110 ea a2 bc 3e a2 8f 5e 3e 5f 92 0b be 1f 58 3f be
       0.36843044 0.21734479 -0.13630055 -0.1868596
000120 ca 56 11 3d 1a a6 04 be 71 fa 00 be 10 5a 7a 3d
       0.03548316 -0.12953988 -0.12595536 0.061121047
000130 15 45 04 bf d1 22 d1 3e f0 ea 98 bd b5 ef fe bd
       -0.5166791 0.40846875 -0.07466686 -0.12448064
000140 ba 09 ea 3d 46 9c 36 be 57 c4 88 3e 47 5c 8c be
       0.114276364 -0.17833051 0.26712295 -0.27414152
000150 47 da 9d bd 30 71 eb bc 6c b4 12 be 29 ca 2e 3d
       -0.07707649 -0.028740495 -0.14326638 0.042673264
000160 2d 21 5e be c8 87 2e 3e 61 c3 d4 bd 01 5c b7 3f
       -0.21692343 0.17043984 -0.10388828 1.4324952
000170 6e 67 27 be 10 a7 91 3d cd 35 b1 bc 60 a7 2b 3d
       -0.16348049 0.07111943 -0.0216321 0.041907668
000180 1d 3c 16 be 1c 49 63 bf 9a 9e 46 bf 6d 18 d8 3e
       -0.14671369 -0.8878343 -0.77585757 0.42206135
000190 fb a9 a8 3e b2 8b 38 3d d8 42 f8 bd ac 77 3d 3c
       0.32942185 0.0450551 -0.121221244 0.0115641765
0001a0 5d 76 f2 3e 5b 3b 9c 3e 40 1a 3f be dd 55 66 3e
       0.4735593 0.30514035 -0.18662357 0.22493692
0001b0 c6 e0 9b 3e cb 00 9d 3e d6 15 86 3e c8 cc 46 3e
       0.30444926 0.30664667 0.26188534 0.19414055
0001c0 d6 3e d5 be 48 5e 93 be 69 35 d7 3e a0 91 d8 be
       -0.41649503 -0.28782868 0.42032936 -0.42298603
0001d0 32 06 09 3e 4b 4d 85 be 83 bf bf be 8c 49 5f 3d
       0.1338127 -0.26035532 -0.374508 0.0545135
0001e0 64 77 94 3d 1d 4b fd bd 21 6e 65 3e 3f 9d 88 3d
       0.072493345 -0.12367842 0.22405292 0.06670617
0001f0 6f a5 fe be 3d 68 46 bd c5 44 9c 3e 2d a6 6e 3e
       -0.4973559 -0.048439253 0.30521217 0.23305579
000200 b2 d2 f0 3c 99 6c 61 3e 8f 32 db 3b 5d 79 cd 3e
       0.029397342 0.22014083 0.0066893767 0.40131655
000210 1b 87 b8 be be 27 59 be 27 6c 86 be 5f 7e a4 be
       -0.36040577 -0.21206567 -0.2625439 -0.32127663
000220 ce 7c f4 bd 19 71 bc 3d 65 44 97 be 04 68 37 be
       -0.11937867 0.09201259 -0.29544368 -0.17910773
000230 56 eb d7 bd ca ce 40 3e 56 44 89 3d 0b 3f a3 bb
       -0.10542934 0.18828884 0.06702487 -0.0049818805
000240 dc d4 bb 3e 8c cd 51 bd ea a7 47 bd 99 f1 bf bd
       0.36685836 -0.051221415 -0.04874412 -0.09372253
000250 36 04 35 3b 92 a4 28 be b0 87 28 3b 03 8b a9 3d
       0.0027620918 -0.16469029 0.0025715642 0.082784675
000260 79 6c 21 3c 38 64 3c 3e 29 06 34 3c d5 b4 b4 be
       0.009852522 0.18397605 0.010987797 -0.35294214
000270 2c 26 31 3f 0c 1c 0c bd ee 02 98 be 9f 21 92 be
       0.6919887 -0.034206435 -0.29689735 -0.28541276
000280 ab f6 74 be 4b 8a c6 3d 8b 1c 49 3e 4a cc e2 be
       -0.23922221 0.09694346 0.19639795 -0.44296485
000290 99 26 89 be f8 83 b0 bd fb 1a a2 be 9a 5c 9a 3e
       -0.2678726 -0.08618921 -0.3166121 0.30148774
0002a0 fb cf 7d 3d 75 45 66 be 5f 5d b8 3d a1 7a 49 3e
       0.061965924 -0.22487433 0.09002184 0.19675685
0002b0 00 3f 1c 3e 50 da 83 be f9 75 05 be 2b cd 18 be
       0.15258408 -0.25752497 -0.13033284 -0.14922015
0002c0 e2 96 1e 3f b9 8f e1 bd 18 e8 27 3e fa 63 01 be
       0.6194898 -0.11013741 0.1639713 -0.12635794
0002d0 db 75 a3 be 54 ee f6 3c 36 41 5a 3e a1 99 b8 3a
       -0.31925854 0.03014294 0.21313938 0.0014083871
0002e0 74 c5 b0 be 27 11 f8 bf d4 0d 8f 3d 63 66 df 3d
       -0.34525645 -1.9380234 0.069850594 0.109082006
0002f0 c6 45 75 be 65 64 18 be 12 d0 98 3e d3 de 6a bd
       -0.23952398 -0.14882047 0.29846245 -0.057341408
000300 0d c5 1c bd d5 2b 0f be e4 1b bc 3d 79 39 67 be
       -0.03827386 -0.13981564 0.09185007 -0.22580518
000310 ad 93 f4 bd 1e 7d 09 3c 3b fd 2c be ab 33 bc be
       -0.119422294 0.008391647 -0.16893475 -0.3675817
000320 94 75 92 3e 81 4a 46 bf 9a ae 51 bc ab 47 01 bf
       0.2860533 -0.77457434 -0.012797976 -0.5049998
000330 29 85 b8 be 71 c8 bb bc f4 15 6e bd da fb 09 3e
       -0.36039093 -0.022922726 -0.058126405 0.1347498
000340 39 b9 d1 3e c2 ac c8 be bf 35 96 3e d5 c6 17 bd
       0.40961626 -0.39194304 0.2933788 -0.037054855
000350 c1 1e 9e 3e 5f fa d6 3e ea d1 11 be ed 79 d2 be
       0.30882838 0.41987893 -0.14240232 -0.41108647
000360 a6 14 1e 3e e6 21 a1 3d 90 8b 43 3f 6a dd 62 3e
       0.15437564 0.07867794 0.7638483 0.22154775
000370 f7 63 35 3e 27 7e 68 be 22 ac cc bd e0 de c1 3e
       0.17713915 -0.22704373 -0.09993769 0.37865353
000380 a6 71 5a bc 0a 4e e3 3d 2c 7b 31 3e 37 4a 34 be
       -0.01333276 0.11098869 0.17332143 -0.17606436
000390 46 30 06 bf 23 7f b9 bd 89 a9 da 3e 01 a9 3c be
       -0.5241741 -0.090574525 0.4270747 -0.18423845
0003a0 ef 7b a3 3e 2d 74 37 3e c2 17 27 bb c9 ba b8 be
       0.3193049 0.17915411 -0.0025496338 -0.36080006
0003b0 6a 0e 52 be ac 71 93 3e d4 72 f3 3d b8 91 a0 be
       -0.20513311 0.28797662 0.11887136 -0.31361175
0003c0 d6 cc 0c bf d5 88 a4 be f3 b9 12 bf ff 8e b8 be
       -0.55000055 -0.32135645 -0.57314986 -0.36046597
0003d0 ab 16 96 3e 0b a8 71 be 1d e5 e5 3d 75 d2 1e bf
       0.2931417 -0.2359926 0.112253405 -0.6203988
0003e0 71 e4 2c bf 2a 21 c5 be b6 af b5 be c7 a9 36 be
       -0.67536074 -0.38501865 -0.3548562 -0.17838202
0003f0 b8 fa 19 3e 92 a2 9c bd ed 0b a5 3e 45 58 90 be
       0.15037048 -0.07648195 0.3223566 -0.28192344

fc1.bias f4 [512]
000000 e0 11 b8 3d 8f 9e f1 bd 34 6a 08 be 2c d8 a6 be
       0.089877844 -0.11797821 -0.13321763 -0.325868
000010 13 1a 13 be 66 a1 46 3e bd e8 07 3d 71 5c d6 be
       -0.14365415 0.19397506 0.03318094 -0.41867402
000020 b8 81 f3 3d cf 0a 42 3e de 95 66 3e a9 ac 5a be
       0.11889976 0.18949436 0.22518107 -0.21354927
000030 2e 53 29 be 93 c1 ab be 46 8f cb be 47 27 9d bc
       -0.16535637 -0.33546123 -0.39757746 -0.019183768
000040 ce 68 73 be 47 a6 66 3b 40 f8 d1 3b 86 7a 91 3c
       -0.23770449 0.0035194324 0.0064077675 0.017758619
000050 84 64 52 3e ea 35 b7 3e c0 c2 7b bc 48 2d 21 3e
       0.20546156 0.3578332 -0.015366256 0.1573993
000060 60 5d 1b 3e 88 db 20 3d 02 2b 04 bd 76 c7 6a be
       0.15172338 0.03927186 -0.032267578 -0.22927651
000070 67 db 5b be 6a bf 4a 3e 60 2a 82 3d d7 93 00 3c
       -0.21470414 0.19799581 0.06355739 0.007847748
000080 91 7d b2 be f8 6b 02 be f0 0f 1d 3d 5e fb 59 be
       -0.34861425 -0.127365 0.038345277 -0.21287295
000090 56 86 6e be 57 f6 cd bd b1 b4 15 3b c9 62 33 3d
       -0.23293433 -0.10056751 0.0022843296 0.04379538
0000a0 c3 dd a0 3d af c8 c2 3d e6 b2 0c 3d 65 2c b6 be
       0.07854798 0.095109336 0.0343503 -0.35580745
0000b0 1e 2e 1e be c3 c4 b7 bd 23 e1 28 3e 65 ed fb 3d
       -0.1544728 -0.08973076 0.16492133 0.12301139
0000c0 a1 e5 0e 3e 36 71 9e be 0d ad 06 3e 0e 33 6f be
       0.13954784 -0.30945748 0.13151951 -0.2335932
0000d0 eb 7e 18 bd 01 a3 cc 3c d1 a1 dd 3d d9 b8 38 3e
       -0.037230413 0.02498007 0.1082188 0.18039264
0000e0 a0 98 2f 3e b4 74 e2 be c5 8a 94 3c 1b b3 dc bc
       0.17148066 -0.44229662 0.018132577 -0.026940873
0000f0 9c 9b b0 3d db d9 5b 3d 94 b8 38 bd 73 75 25 3e
       0.0862343 0.05367456 -0.045097902 0.16158085
000100 95 97 21 3e fb 8d 77 3e f5 dd 30 3e 96 5b 3e bd
       0.1578048 0.24175255 0.1727217 -0.046474062
000110 4d 74 8d be 99 ba 24 be 4d 91 e5 bd a5 b1 93 be
       -0.27627793 -0.16086806 -0.112093545 -0.2884647
000120 d1 9d 0c 3e 62 d9 21 3d 22 06 e9 3d 03 8d 03 3e
       0.13732077 0.039513953 0.11378123 0.1284676
000130 6d 8e 05 bd 8e f6 65 3e 02 2f ae be 3d 35 05 3e
       -0.03260653 0.22457334 -0.3402024 0.1300859
000140 3d c4 ab 3e c1 fd 2e 3e a8 d5 61 be 72 19 9f be
       0.33548155 0.17088987 -0.2205416 -0.310741
000150 57 c9 d1 bc 30 07 34 be 4d 73 98 bd 0f dd 19 3e
       -0.025608702 -0.17580867 -0.07443867 0.15025733
000160 2b 1f 68 be 45 54 15 3e a3 fc 0b 3e 90 ae 58 be
       -0.2266814 0.14582928 0.13670592 -0.2116034
000170 47 cd d0 3b 5d df ad be 97 31 46 bd d4 1d 99 be
       0.006372127 -0.33959475 -0.048387136 -0.2990557
000180 9f 1d 0c bf d8 c8 74 3e a5 d9 dd be 8d 0f aa 3d
       -0.547327 0.23904741 -0.43330112 0.08303747
000190 96 3d 8a 3e 1d 23 c7 bc 8a 4a 3e 3e f8 09 8d be
       0.2700011 -0.024308736 0.18583122 -0.27546668
0001a0 48 0a f9 bd a2 15 3a be 4c 8f 4c 3e 02 b3 63 be
       -0.12160164 -0.18172315 0.19976538 -0.22236255
0001b0 7a 49 02 3e d7 e8 33 bd db a0 4a 3e f0 94 2a be
       0.12723342 -0.043923225 0.19787924 -0.16658378
0001c0 76 d9 94 be bb a8 28 be c2 e5 73 be 43 64 83 bb
       -0.2907216 -0.16470616 -0.23818114 -0.004009755
0001d0 9a 73 48 bd 9d d4 c7 3c 2d 8f a0 be e5 85 b9 3d
       -0.04893837 0.024393374 -0.31359234 0.090587415
0001e0 1f 35 5a 3d 20 30 a0 bd c9 69 a5 be 3e 2b 40 be
       0.053273316 -0.07821679 -0.3230727 -0.18766496
0001f0 6d 6f b4 be 1e c9 df bd bf 8f 0a 3e 96 d2 56 be
       -0.3524126 -0.10927032 0.13531397 -0.2097877
000200 91 65 17 3d b0 2d 76 3c 72 02 85 be 78 e1 55 bc
       0.036962096 0.015025541 -0.25978428 -0.013054244
000210 cc 06 b0 3d d1 0f 38 be 54 ca 01 bd f7 b8 e5 3d
       0.085950464 -0.17974783 -0.031687096 0.1121692
000220 0c e9 db be 82 25 b2 3c 87 c7 9d be d5 f0 ae 3e
       -0.42951238 0.0217464 -0.3081629 0.34168115
000230 20 3a 89 3d ba b4 f8 be 11 cf 19 3d 3c 79 8b 3d
       0.067005396 -0.48575383 0.03755099 0.06810233
000240 71 9b 93 be b3 fb 42 3e 5a f3 d5 3b d6 d8 85 bd
       -0.2882953 0.19041328 0.006529254 -0.06535499
000250 26 2b d7 3d f5 9b 33 be 20 1c ca be 52 c4 27 3e
       0.10506277 -0.17539962 -0.39474583 0.16383484
000260 aa cb a1 3c 41 b0 37 3e 06 9f dc be e6 10 dd 3d
       0.019750435 0.1793833 -0.43090075 0.10794239
000270 c8 c4 32 3e da 2b 1e be 7c 1b 6b bc 3e e7 be bd
       0.17457879 -0.15446416 -0.0143498145 -0.0932145
000280 54 8d a3 3d 73 56 b1 3d 7a 70 0d bc f5 f4 84 3d
       0.079859406 0.08659067 -0.0086327735 0.06492034
000290 32 6f f2 bd 55 c0 95 be 5d 1f 2c be 33 23 5e be
       -0.11837615 -0.292483 -0.16808839 -0.21693115
0002a0 1f 9c 05 be 35 a1 ca be 34 29 4f be 34 ea e1 3c
       -0.13047837 -0.39576116 -0.20230561 0.027577497
0002b0 61 f9 b9 be 4a 14 63 3e 7c 13 5e be a7 2d 2e bd
       -0.36323074 0.22175708 -0.2168712 -0.042524006
0002c0 d9 59 cf be a5 93 1c 3d f8 45 5f 3e 57 ea bf bd
       -0.40498236 0.038226742 0.21804035 -0.09370869
0002d0 69 ae 4e be 19 9f 41 be 4d bf b4 be 90 51 21 3e
       -0.2018372 -0.18908347 -0.353022 0.1575377
0002e0 65 a9 ec 3d 39 58 ad bd cd 3e 3a be fa 38 ad 3d
       0.11555747 -0.08464093 -0.18188019 0.08458133
0002f0 9f 81 1e bb 14 bc 4a be 80 53 42 3e ea 0e 3d be
       -0.0024186147 -0.19798309 0.18977165 -0.1846272
000300 c3 50 e7 3d d7 ba b0 be 47 90 30 be 88 1f 5d 3e
       0.11294701 -0.34517547 -0.17242537 0.2159406
000310 55 5a f0 3d 67 37 89 bd 66 ff 89 be 94 d2 19 b9
       0.117359795 -0.0670002 -0.26952666 -0.00014669664
000320 85 00 1c 3d 65 62 d0 bd af aa b5 3d 2c 9d cb be
       0.038086433 -0.10175017 0.08870446 -0.3976835
000330 21 46 77 be df cd db 3d 39 d9 ad bd b9 94 44 3d
       -0.24147846 0.10732626 -0.084886976 0.047993395
000340 6d 70 80 3d 8f 6a dd be 18 79 20 be 41 b9 98 be
       0.062714435 -0.4324536 -0.15671194 -0.29828838
000350 c1 a1 72 be 5b 15 3a 3e e3 c0 cb 3d 38 7f 30 3e
       -0.23694517 0.18172209 0.099488996 0.1723603
000360 40 fa 81 be a9 8f df bc d3 37 d7 3d 73 fa 0c be
       -0.25386238 -0.027290182 0.105086945 -0.13767414
000370 75 68 a1 3d b5 23 c0 bd 7d 93 5f bc a9 44 1f 3d
       0.07881252 -0.093818106 -0.013646004 0.03888384
000380 1c 33 d8 bd c6 46 5c ba 66 97 4b be 29 af 45 3d
       -0.10556623 -0.000840288 -0.19881973 0.04826275
000390 3a f7 4c be 92 a4 00 3e cd 56 29 be 2a d7 66 3b
       -0.20016184 0.12562779 -0.16537018 0.0035223463
0003a0 58 76 73 3e e4 14 f9 3d 57 46 06 3e 37 b3 15 3e
       0.23775613 0.12162188 0.1311277 0.14619146
0003b0 6f 74 46 be e6 48 58 be 48 cf 9e ba f7 6b e7 bc
       -0.19380353 -0.21121559 -0.0012116218 -0.028249724
0003c0 f3 e1 2d 3e 5e e3 e1 bd 5a 42 f0 3c 71 cd 77 be
       0.16980724 -0.11029695 0.029328514 -0.24199463
0003d0 34 aa 86 be 94 ff d8 3d 75 d6 93 bd 49 cf e9 3d
       -0.2630173 0.10595623 -0.07218639 0.1141649
0003e0 44 5a 23 be 45 5a 61 be 80 5b 58 be a8 b7 36 be
       -0.15952402 -0.22007091 -0.21128654 -0.17843497
0003f0 e0 05 2c be 62 56 c3 be ee cd f9 be 7d 81 8d bd
       -0.16799116 -0.38151842 -0.48789924 -0.069094636

fc2.weight f4 [256, 512]
000000 88 2f 70 ba 99 0e 84 bc 1c ff 30 bc 05 cb 73 3a
       -0.0009162356 -0.016120242 -0.01080301 0.00092999666
000010 9a e2 0f bd 9a 25 86 3c 6e 02 d9 bc 1e b6 7e bb
       -0.035128213 0.016375352 -0.026490416 -0.0038865875
000020 66 07 e0 3b ef db e4 ba 59 22 67 bd 0e fe e2 bc
       0.0068368195 -0.0017460565 -0.05642924 -0.027709033
000030 c3 57 90 3b b3 a6 03 bd 48 a6 0b bc 0a 4c d5 b9
       0.0044049933 -0.0321414 -0.008523531 -0.0004068318
000040 2f b1 d7 bc 7f 33 42 bd 45 62 83 bb b2 a8 40 bb
       -0.026329605 -0.04741239 -0.0040095174 -0.0029397425
000050 66 69 0d 3c 4c 45 54 bd 76 3b 1e bd db 86 0a bd
       0.008631086 -0.0518239 -0.038630925 -0.033820014
000060 28 aa 01 3c fb 34 f5 3b 01 90 13 bd ad 20 1f bd
       0.007914104 0.0074831224 -0.036026005 -0.03884952
000070 7d 55 cb bc 92 c3 b9 3b cc a7 b2 bb f2 c6 14 bd
       -0.024821037 0.0056690658 -0.005452132 -0.03632254
000080 6a 99 8c 3b 4c 59 e3 3b e4 50 a4 bb 92 4c 17 3c
       0.0042907493 0.0069381353 -0.0050145257 0.009234564
000090 f3 4e b8 bc 46 53 58 bd e6 f0 cc bc 8c f9 c7 bc
       -0.022498583 -0.05281379 -0.025017213 -0.024410985
0000a0 97 ab cd bc 80 a8 89 bc 69 fc 25 bc a5 24 cf bc
       -0.025106234 -0.01680398 -0.01013098 -0.025286028
0000b0 04 5c 5a 3c d9 8c df 3c f3 ca 59 3c 42 b6 97 bc
       0.013327602 0.027288841 0.013293016 -0.018519524
0000c0 ed 0b a6 3b b2 77 dd bc 75 a5 16 bd e1 22 ec 3c
       0.0050673396 -0.027034614 -0.036778886 0.028825225
0000d0 aa e8 e6 bc b0 37 1f bd 3b 52 4e bd 9c 7a a2 bc
       -0.028187115 -0.038871467 -0.05037139 -0.019833855
0000e0 17 e4 03 bd 13 c4 27 bb 47 fb a2 3c 6f 58 76 3c
       -0.032199945 -0.0025599047 0.019895209 0.015035733
0000f0 fa 02 ae bb d3 fe b5 3b c1 ba d9 bc 50 7a d9 bc
       -0.0053104134 0.005554059 -0.026578309 -0.026547581
000100 0d 58 b6 bb a7 4a 91 bc 09 07 05 3b d8 e0 11 3a
       -0.0055646957 -0.017735792 0.0020298383 0.00055648154
000110 97 1b 11 bb d0 1f 47 3c 01 6a 34 3d 71 f7 20 3b
       -0.002214169 0.012153581 0.044046406 0.002456155
000120 9c 97 15 bd 1e 05 d0 bb 35 21 ec 3b cc 29 f4 bc
       -0.03652154 -0.0063482663 0.007206107 -0.029805087
000130 be 88 0b bd 0d e3 2d bd 8b 73 8b bc db cb 80 3c
       -0.034065954 -0.04245286 -0.017022869 0.015722206
000140 90 60 ab 3c 4b 95 ec 3a 75 89 ae 3c 1a 63 f7 bc
       0.020920068 0.0018049864 0.021305779 -0.030198622
000150 16 58 c0 38 40 75 08 bd 75 09 be 3b c2 5b 26 bc
       9.171681e-05 -0.033314943 0.005799467 -0.010153713
000160 36 94 a9 bc 27 8e 4e bb c4 0e 0a 3c 24 e4 1a bd
       -0.020700555 -0.0031517835 0.008426372 -0.037815228
000170 3b f8 2c bd fb 5e 25 bd 61 70 0b bd ff af 1d 3d
       -0.04222892 -0.040373784 -0.03404272 0.03849792
000180 cd 5d b9 bb d2 7e 06 bc 1f 65 1f bd 2c 30 6b bd
       -0.005656934 -0.008208947 -0.038914796 -0.057418987
000190 42 1f 31 bc 53 8a 1c 3c 8f 9c 17 bd cf b9 5c bc
       -0.010810675 0.009554463 -0.03701454 -0.013472035
0001a0 5d 4c 3a bc 99 69 8c 3c 52 5f a6 3c 97 6b 71 3c
       -0.0113707455 0.017140197 0.020309124 0.014735124
0001b0 da ba c2 bb da eb 22 bd 54 cc 27 3d ee 2b 44 bd
       -0.0059426846 -0.039775707 0.040966347 -0.047893457
0001c0 c9 7a 2a bd f7 40 f6 3c f5 07 9b bb e0 91 f4 bc
       -0.041621003 0.030060275 -0.004731173 -0.029854715
0001d0 28 86 8d bc 76 ca 7a bc 4b 60 99 bc 86 65 c4 3c
       -0.017275885 -0.0153070595 -0.018722674 0.023974191
0001e0 f1 2c ad bc ec e2 90 3c 88 9a e0 bc 28 a8 68 3c
       -0.021139594 0.01768633 -0.027417436 0.014200248
0001f0 e5 80 b0 bc 91 80 8c bc 4f 90 8c 3a 06 b5 99 3c
       -0.021545837 -0.017151149 0.001072416 0.018763077
000200 4a 46 84 bc 23 d7 07 3c b6 14 a7 3c 5f 5b a6 bc
       -0.016146798 0.008291039 0.020395618 -0.020307241
000210 00 dc 81 bb cb 96 04 bd d5 d5 46 3c 5c 39 54 bd
       -0.0039629936 -0.03237037 0.0121359425 -0.051812515
000220 bc 18 ab bc 56 67 c8 3c cc 27 50 3c ac d3 49 bd
       -0.020885818 0.024463337 0.012704801 -0.04927413
000230 ca 6d 29 bd e4 53 72 3a f7 d4 3b bd 73 34 a6 bc
       -0.04136447 0.0009244068 -0.045857396 -0.020288682
000240 a0 df d2 bc 80 a7 bf 3c 31 e0 a7 bc 28 91 f0 bb
       -0.025741398 0.0233953 -0.020492645 -0.0073415227
000250 c7 3d 1d bd ed 01 b0 bc d0 00 21 bc c7 6b 59 3c
       -0.038388994 -0.021485293 -0.009826854 0.013270325
000260 36 28 79 3c 0e 9e 7a 3c 5b 8c f9 3b 3a f2 01 3d
       0.015207341 0.015296472 0.0076156086 0.031725146
000270 2b 7d 50 bb 94 18 27 3c 31 91 07 3d 5e 62 e5 3c
       -0.0031812887 0.010198731 0.03309745 0.028001007
000280 b0 3b 41 bd 9a 08 73 bc 29 88 a0 bc f8 ba 1f bc
       -0.047176063 -0.014833594 -0.019596176 -0.009749167
000290 8d fb ea bc 35 27 62 bd 30 9d 47 bb 10 fd cf 3c
       -0.028684402 -0.055213172 -0.0030458681 0.025389224
0002a0 ce 01 1e bd b4 cb 65 3c 7f d0 cf bc ad 56 a5 3c
       -0.03857594 0.014025617 -0.025367973 0.020182932
0002b0 02 83 2a bc a9 f7 3a 3c fa a1 17 bd 42 dc 1d bc
       -0.010407211 0.011411586 -0.037019707 -0.009635033
0002c0 aa 54 4c 3b 42 b4 6b bd e7 17 40 bd 9f f5 8b bc
       0.0031178393 -0.057544954 -0.046897795 -0.017084895
0002d0 0e 97 2e bd 1b 54 22 bd a1 65 23 bc 9e 9e 42 bd
       -0.042624526 -0.03963099 -0.009972961 -0.04751455
0002e0 8c f9 c3 bc 4d f4 9f 3c 54 f7 4f bd 39 ee f2 bb
       -0.023922704 0.019525671 -0.05077298 -0.0074136523
0002f0 c4 82 83 b8 e0 27 11 bc a7 d0 c0 3c e5 bc c6 bc
       -6.270924e-05 -0.008859605 0.023536993 -0.024259994
000300 18 84 07 3c 39 ec 5e bb c5 da 9b 3a 71 38 71 bd
       0.00827124 -0.0034015311 0.001189076 -0.058891717
000310 96 80 02 3c 4b b2 58 ba 28 43 28 3c 50 12 08 bd
       0.007965228 -0.0008266314 0.010269918 -0.03322059
000320 cd ca 88 bc fa 70 30 3d e0 74 44 3b c1 6d 06 3d
       -0.016698265 0.043076493 0.002997689 0.032819513
000330 ec 38 9e bc 1f 1c 32 bd ef 68 48 bd cd 7c ac 3b
       -0.019314252 -0.04348385 -0.048928197 0.005263901
000340 28 ed 0d bd d4 63 0c bc 9c a3 c5 bb d0 48 27 3d
       -0.034649998 -0.008568723 -0.0060314666 0.040840924
000350 ce 9a 1a 3d 30 ef 19 3c f5 8e 48 3c 9d 9b a7 3c
       0.03774529 0.009395406 0.012241115 0.020459944
000360 69 d3 3c bc bc ad f1 bc b9 96 ea 3c 82 44 cd bc
       -0.0115250135 -0.029501788 0.028636323 -0.025057081
000370 63 64 17 3c 24 40 23 bd 6d cc d6 bc 8b 10 58 bc
       0.009240243 -0.03985609 -0.026220525 -0.013187538
000380 c6 30 7c bc c3 43 35 bd cd 07 a5 3c 45 1c a6 3c
       -0.015392488 -0.044254076 0.020145321 0.020277152
000390 aa 13 21 bd 7b d3 80 3c 97 92 29 bc f1 e0 a1 bc
       -0.039325394 0.015725842 -0.010349891 -0.01976058
0003a0 1e 01 b5 bc a6 a3 1a bd 8b cd cf bc 07 f7 8d bc
       -0.02209526 -0.037753724 -0.025366565 -0.017329706
0003b0 8f 8a 63 bc 10 ab f2 bc 4f 8a 9c bc 30 86 1d bd
       -0.013888015 -0.029622585 -0.01910892 -0.03845805
0003c0 ff a3 f5 bc 9d b1 31 3d c9 fb 61 bc fc 47 97 3c
       -0.029985426 0.043382276 -0.01379294 0.018466942
0003d0 bc 91 2c bc 78 80 cc bc dc ba 0f bd 87 92 75 bd
       -0.010532793 -0.024963602 -0.035090312 -0.059954192
0003e0 91 19 6c 3b 87 a6 84 bc 89 5f 8f 3c 23 8d 9f 3a
       0.003602598 -0.016192688 0.01750161 0.0012172799
0003f0 5a 4e 26 3d 75 ff aa bc 2f 0f 2e 3d b9 06 9f bc
       0.040602066 -0.020873765 0.04249495 -0.019412385

fc2.bias f4 [256]
000000 2d 7c e3 bc bd 8a 1a be 4d 11 8b bd 92 14 6e bc
       -0.027769173 -0.15091987 -0.06790409 -0.0145312715
000010 1c 53 a9 3d 60 c7 9d bd a2 9a 0c 3c d2 e9 24 bd
       0.08267805 -0.077040434 0.008581789 -0.04026205
000020 57 99 a6 3b 4d 65 f0 ba 88 66 a4 bd 0e 75 9d bc
       0.0050841975 -0.0018340737 -0.08027369 -0.019220855
000030 5f 3b a7 3c 7a 70 40 bd 3f c5 58 be 3c 6a ae bc
       0.020414053 -0.046982266 -0.21168993 -0.02129089
000040 6c 82 93 bd 40 20 e8 bc 71 56 df 3b b4 a3 a5 3d
       -0.072026104 -0.02833569 0.0068157245 0.080878645
000050 7c 3f 92 bb b9 43 7f bd 14 25 95 3d 9d d6 af 3b
       -0.0044631343 -0.062320445 0.07282463 0.00536616
000060 3e 1d 13 be ea d2 98 bd 86 0a 19 bd 68 2b 9d 3c
       -0.14366624 -0.07462104 -0.03736355 0.019185737
000070 82 08 87 3c b3 1f b3 b9 34 b5 0d 3d 27 e9 5a bd
       0.016483549 -0.00034165158 0.034596637 -0.053445008
000080 e3 9a 48 bb 6b bc 36 bd 9e f4 f1 bc 16 fc 8b bd
       -0.0030609898 -0.044613283 -0.029535588 -0.06835191
000090 ea cb 29 be 12 eb a7 bd 7b 43 18 bd 84 92 00 3c
       -0.16581693 -0.08199133 -0.03717373 0.007847432
0000a0 d0 8a 1f 3d 03 33 23 bc 89 30 f3 3d 58 00 3a 3b
       0.03895074 -0.009960893 0.11874492 0.0028381553
0000b0 35 ee 55 3d 4b b6 76 3b 39 42 c9 3c 48 ab 82 3c
       0.052229125 0.0037645276 0.02456771 0.015950814
0000c0 53 d0 78 3d 48 07 90 3d c3 36 5f bd 90 fd 4e 3d
       0.06074555 0.07032639 -0.054495584 0.050534785
0000d0 ee f1 6f 3d 95 14 27 be 44 c2 98 bc 9b f3 56 bd
       0.05858033 -0.16316445 -0.01864732 -0.052478414
0000e0 d9 c3 e0 3b 24 fd e1 bc 9f a6 76 bc a9 2c 2d bc
       0.0068592844 -0.027586527 -0.015054374 -0.01056973
0000f0 c3 46 ec 3c 10 d0 39 bd 59 42 7b bd 9b 4d ba bc
       0.028842336 -0.04536444 -0.06134257 -0.022742083
000100 21 87 a5 ba fd 90 8d bd a4 bc 1e bd bc 8d 2b be
       -0.0012628773 -0.0691242 -0.03875412 -0.16753286
000110 75 8f 2f be 32 e2 a1 3d b6 47 18 bc 9a e2 33 bd
       -0.17144568 0.079044715 -0.009294441 -0.043917276
000120 73 6e de 3d 5c 6e d0 bd 37 cc 27 bd 56 5f 04 bd
       0.1086091 -0.101772994 -0.04096624 -0.032317482
000130 df 36 8b 3c 5e 0a 1d bd 2b d8 63 3d 48 37 8c bc
       0.016993938 -0.038339965 0.055626076 -0.017116204
000140 6f f5 09 3d 3f 5f 84 3c d3 cc 59 bd b2 04 55 bc
       0.03368133 0.016158698 -0.05317385 -0.013001608
000150 8f 76 45 3c ef dc 2e bd e2 f9 04 3e 34 65 05 be
       0.012052192 -0.042691167 0.12985948 -0.13026887
000160 0d ae 0f bc 7f 3a 08 3d 7a 9a 16 bc d6 d2 78 3d
       -0.008769524 0.03325891 -0.0091921035 0.060747944
000170 80 56 00 bd c6 ed 46 bd 44 e9 ae 3d 4f 1e 1b 3c
       -0.031332493 -0.048566602 0.08540586 0.009467675
000180 e9 64 1a 3d f5 53 6b bb d7 92 08 bc c7 a2 ad 3d
       0.03769389 -0.0035908197 -0.008335791 0.08478313
000190 a5 e1 94 bd ed 0b c1 bd 9a 1f 11 be d4 3b f8 3d
       -0.07269601 -0.09426103 -0.14172211 0.12120786
0001a0 5a e9 eb bd 4f 5c b7 bb c0 ed e1 bd 59 26 e8 3d
       -0.11519118 -0.005595721 -0.11031675 0.11335439
0001b0 f0 78 f1 bd e1 cb 7b bd a1 e3 b6 bc 7c c1 aa bb
       -0.11790645 -0.06147373 -0.022325339 -0.0052110534
0001c0 b6 83 2e 3d 26 72 86 bc e5 27 48 bd 4d b0 9a bc
       0.042606078 -0.016411852 -0.04886617 -0.018882895
0001d0 85 69 0c bd 56 93 f7 3b b5 68 fe 3d 5b bf 10 3c
       -0.03428032 0.0075554056 0.12422315 0.008834685
0001e0 9d 93 66 bc ac e2 c1 bc ea 75 e5 ba 1e 42 13 bd
       -0.01407328 -0.023667656 -0.0017506455 -0.035951726
0001f0 00 61 1e 3d 71 8b 03 bc dc 98 08 be f7 09 c2 3d
       0.038666725 -0.008028851 -0.13339561 0.09474557
000200 55 4a 8e 3d e0 8d 96 3d dd 41 c9 bd 23 21 1f 3d
       0.069477715 0.07351279 -0.098270155 0.03884996
000210 09 75 94 bc 5e f3 14 bd d1 18 05 3d a8 69 37 bd
       -0.018122213 -0.036364906 0.03249437 -0.044778496
000220 d9 52 bb ba 5b 52 7b 3d 7e 21 96 3d 6f 72 24 be
       -0.0014291658 0.061357837 0.07330607 -0.16059278
000230 da 24 d3 3d 1e df ba bc 54 77 00 be e5 94 98 bc
       0.10309763 -0.022811469 -0.1254552 -0.018625686
000240 70 f4 45 bc 94 5d 93 bc 38 d7 3b 3d 41 90 57 bd
       -0.012082204 -0.017988957 0.045859545 -0.052627806
000250 91 f5 68 bc d7 8f a0 3c 3c 11 88 3d 9e 7a a2 bc
       -0.014218704 0.019599838 0.06643912 -0.019833859
000260 61 1b 8d 3d 8d 1c 35 bd 2d 04 1d be 41 25 7b bd
       0.06889988 -0.04421668 -0.15333624 -0.061314825
000270 51 36 56 bd 5b d6 3f bd 9c a3 fb 3c 29 78 fb 3d
       -0.052297894 -0.046835285 0.030717663 0.12278778
000280 89 3a da 3d 8c 3a eb bc 57 f7 88 bd b9 3e ba 3c
       0.10655696 -0.02871444 -0.06687801 0.022734987
000290 85 56 f4 3d b4 f8 a6 bc 19 9c 07 3d 00 c8 4b bd
       0.11930565 -0.020382263 0.03310785 -0.04975128
0002a0 29 7a 11 3e d4 fa 94 3d 16 c0 4b 3c 51 84 29 3c
       0.14206757 0.07274404 0.012435934 0.010346488
0002b0 19 82 98 bc ef 90 c7 bc 74 2b 9c 3d 58 16 30 be
       -0.018616723 -0.024361102 0.076254755 -0.17196023
0002c0 50 2e 04 be 7a b6 53 bd a3 cc ed bc 8e 4b db bd
       -0.12908292 -0.051687695 -0.029028242 -0.1070777
0002d0 ce 5d 89 bb 3b 61 d5 3d 30 0a 72 3d 4c 92 a9 bc
       -0.0041920906 0.10418936 0.059091747 -0.020699643
0002e0 b0 be 99 3c 4f dd 07 bd 4d 9e 16 bd 21 b0 20 3b
       0.018767685 -0.03317004 -0.03677206 0.0024519044
0002f0 ed cc c2 3c e1 94 3d 3b 42 77 57 bc 9d 3e f8 bb
       0.023779357 0.002892785 -0.013150992 -0.0075758235
000300 18 a6 ab bc 30 bd 73 bb f1 c4 bb bd 66 a7 2d 3e
       -0.020953223 -0.0037191622 -0.09168423 0.16958389
000310 55 a3 e4 3c 34 31 13 3a e9 f8 04 bd 94 f9 bf 3c
       0.027909914 0.0005614937 -0.03246394 0.023434438
000320 f5 f5 86 3d 8a 1b 97 3d 9e 09 08 3d 32 87 99 3d
       0.06589881 0.073782995 0.033212297 0.074964896
000330 b2 67 48 bd fd 85 ad bd 36 bc db bd f2 4b 2c bc
       -0.048927017 -0.08472822 -0.10729258 -0.010516154
000340 5d 40 37 be d8 75 12 bd 29 be be bd a9 19 3f bd
       -0.17895646 -0.035756916 -0.09313614 -0.04665533
000350 15 86 57 3d 95 dc f7 bc a1 de 99 3a 19 2b 8e 3c
       0.052618105 -0.030256549 0.0011739322 0.017354535
000360 99 83 37 bd 02 7d e9 bb 87 69 22 bc f8 e8 ba bd
       -0.044803236 -0.007125498 -0.009912855 -0.091264665
000370 0a 9b 76 bc 4c 9d 32 3b 34 3d 99 bb ce b9 f1 3d
       -0.015051613 0.00272544 -0.0046764854 0.118030176
000380 c5 b8 2e bd 08 d3 6a bd 72 a1 8a 3c 08 84 31 3d
       -0.04265668 -0.05733016 0.016922686 0.043338805
000390 d6 87 13 3d e8 da 9a 3d d6 64 0e 3e 36 40 c9 3c
       0.036018215 0.07561284 0.13905653 0.024566751
0003a0 c0 24 12 bd 8e fe 4a 3c 99 79 b8 b9 80 ab 0a bd
       -0.03567958 0.012389792 -0.00035185812 -0.03385496
0003b0 86 77 a6 bc d8 a9 60 3d 1c b2 0b bd 4b 83 e9 bd
       -0.020320665 0.054849476 -0.034105405 -0.11401995
0003c0 0c 38 a8 bb 88 2c 74 3d 24 a7 30 be 2d 63 bd 3c
       -0.0051336344 0.05961278 -0.17251259 0.02311858
0003d0 35 23 94 bd 81 60 c2 bb b5 67 05 bd ac 85 39 bd
       -0.07233278 -0.0059319143 -0.032569606 -0.045293495
0003e0 e2 87 1f 3c 6c 10 fc bc ef 42 25 3d 73 ad 52 bc
       0.009736987 -0.03076955 0.040347036 -0.012858736
0003f0 72 09 87 3d f0 36 e6 bd 59 38 cc bc 68 4f 64 bd
       0.065935984 -0.11240947 -0.024929212 -0.05573979

fc3.weight f4 [128, 256]
000000 65 e4 82 3d 8e ae 92 3e 8b 85 a7 bc 3e 2e 8c bc
       0.06391219 0.286488 -0.02044942 -0.017111894
000010 a7 4d b8 3c 4e ec c8 bd 1d 19 f6 3c 08 56 a9 3c
       0.022497965 -0.098106965 0.030041272 0.020670906
000020 8b 51 19 3d 11 9a 2b bd a0 60 ce 3c 30 83 66 bd
       0.03743128 -0.041894976 0.025192559 -0.056277454
000030 28 97 3a 3d 1f 17 a3 3e 05 d7 e2 3c 2a 31 4a 3d
       0.04555431 0.31853577 0.02769042 0.049363293
000040 92 0b fb 3b 3e 73 15 3d a7 96 d9 bc 71 a6 cf 3e
       0.0076612914 0.036486857 -0.026561094 0.40556672
000050 ec 7b fd 3c c5 cd de 3c d7 7c b9 bd c4 02 13 3e
       0.03094288 0.027197728 -0.090570144 0.14356524
000060 e4 d0 03 bf 74 91 ec 3e 61 77 70 3d c4 47 ad be
       -0.51490617 0.46204722 0.0587076 -0.33843815
000070 0b c3 fb 3c c0 c9 67 3d 87 6c 38 bd 92 48 4b bd
       0.030732652 0.05658889 -0.045025375 -0.049629755
000080 cf 37 3d bd 70 4f 0c 3c 09 0a 1f bd 6a ff 39 be
       -0.0461958 0.008563861 -0.03882793 -0.18163839
000090 9d af 0d be f0 90 1e 3d 37 85 8b 3c f2 c0 95 3c
       -0.13836522 0.038712442 0.017031295 0.01828048
0000a0 4f 64 90 3c 04 41 ed bc bc c3 87 bd 25 5f 90 bd
       0.017625956 -0.028961666 -0.0662913 -0.070493974
0000b0 39 07 ae 3c 9b 44 3f 3d 1b a5 d4 3d f1 d7 bd bd
       0.021243678 0.046696287 0.10383054 -0.09269703
0000c0 52 bc bf bd 40 f1 8c 3b 14 1e 90 3d 0c 81 90 3e
       -0.09362091 0.00430122 0.07036987 0.28223455
0000d0 bb da 8f 3e 5a 08 f0 3d 63 1a af 3c 0e 78 0e bc
       0.28096566 0.11720343 0.021374887 -0.008695615
0000e0 0a 2f 9f 3c 09 fc 07 3e 93 82 85 bc 76 f0 01 bc
       0.01943161 0.13279738 -0.016297614 -0.0079308655
0000f0 84 a6 85 be fd 34 79 3c 31 0e ac 3d 21 6f 34 3c
       -0.26103604 0.015210387 0.08401144 0.011012823
000100 14 46 cb 3d ed db d7 3c 75 cc 6e bd da fb 9e be
       0.09925476 0.026349986 -0.058300454 -0.31051522
000110 af 7b 4a 3d 7b d5 e7 3c ca 9f af 3e f2 ae 37 bc
       0.04943436 0.028300038 0.34301597 -0.011211144
000120 ec 87 9b 3d e9 45 8f 3d 3c 2d 6e bd d7 3f 4a bd
       0.075942844 0.06995756 -0.058148608 -0.04937729
000130 b2 c7 e1 3d a9 cc 2c bc d4 f0 52 3e 46 8e c7 bc
       0.11024417 -0.010546842 0.20599681 -0.024359833
000140 fc dd cd 3d 49 c7 6f 3d fc 95 f7 3c 9d f7 bf bc
       0.10052106 0.058539663 0.030222885 -0.0234335
000150 86 fd 65 3d d5 d4 20 be e1 f7 94 3d 51 20 a4 be
       0.056149982 -0.15706189 0.07273842 -0.32055905
000160 ec 23 3a 3d 85 d9 83 3d e9 18 39 3d 0e 3e 82 3e
       0.045444414 0.06437973 0.04518977 0.2543797
000170 11 95 42 bd 18 43 7b 3d 44 a0 d1 3d 56 f6 91 3c
       -0.047505442 0.061343282 0.10235646 0.017817657
000180 d1 d5 f8 bd 06 35 a1 bc 7c 50 14 3e 45 a2 3f 3e
       -0.12150157 -0.019678604 0.14483827 0.18714245
000190 eb 22 a5 bc b3 98 0e bd bc 73 ce 3a da 4b f7 3d
       -0.020158252 -0.034813594 0.0015751044 0.120750144
0001a0 9c 4c b7 3e 57 35 89 bc 1f 75 37 be e0 04 05 3d
       0.35800636 -0.016749067 -0.17915772 0.032475352
0001b0 27 8b 4e bc bc ab dc bd 57 44 72 3d 09 82 81 bc
       -0.012606419 -0.10774943 0.059147205 -0.015809076
0001c0 5e 21 4b bd 27 95 2c 3b ff 70 e9 bb 7e bc 2d 3e
       -0.04959237 0.002633402 -0.007124066 0.16966435
0001d0 f5 35 34 bd d8 90 c9 bc 57 0b fc bd 98 a8 eb bb
       -0.04399677 -0.0246052 -0.123068504 -0.007191729
0001e0 42 c0 29 bd 5e 67 37 3e 39 ae 0a 3d 75 3a bb 3d
       -0.041443117 0.17910525 0.033857558 0.09142009
0001f0 c9 00 b5 3d 0c 22 d5 bc 87 25 3a be 93 f5 f6 bb
       0.088380404 -0.026017211 -0.18178378 -0.007536599
000200 0b 7e bf bd 94 93 3a 3e 88 30 a4 3e 64 da e1 bd
       -0.09350213 0.18220359 0.32068276 -0.11027983
000210 dd 48 45 bd 20 e9 7e bd 55 4b 86 bd c3 ce 09 3e
       -0.04816519 -0.062234044 -0.06557337 0.1345778
000220 99 cf ef bc 23 b6 58 3d 08 dd 8e be f9 27 47 3e
       -0.029273795 0.052908074 -0.27903008 0.19448842
000230 cd da 0e 3e 68 85 47 3d 91 d0 ec 3d bb 94 25 3a
       0.13950653 0.04871121 0.115632184 0.0006316413
000240 fa d5 53 3d 12 b0 a1 3d 18 d6 9b 3d cf 31 af 3c
       0.051717736 0.07894911 0.076091945 0.021386055
000250 1e da ad 3c 15 9a a3 bb ad 4f 9e 3d e2 c6 a9 bd
       0.02122217 -0.0049927332 0.07730041 -0.08289887
000260 03 76 1c 3a 69 ee 85 bd 10 9f a7 be 5e 26 34 bd
       0.0005968513 -0.06539614 -0.32738543 -0.043981902
000270 28 4d 1b bd 85 c2 5d 3e 7a 22 e3 3d 33 1b e8 3d
       -0.03791538 0.21656235 0.1109056 0.11333313
000280 83 5a 14 3e 2a 11 7e 3d 70 80 85 3e 7b 0e 71 bd
       0.14487652 0.062028088 0.26074553 -0.0588517
000290 27 bf d9 3d 9f 92 12 bd 93 2f 25 3e d3 55 95 3d
       0.106321625 -0.03578436 0.1613143 0.0729176
0002a0 87 dd f5 3d 2a b8 e1 3d 30 a7 f6 3c e6 98 f5 bc
       0.120051436 0.11021455 0.030109018 -0.029980134
0002b0 eb 3b 12 3b 11 eb 18 bd b4 64 24 be a3 f4 08 3f
       0.0022313546 -0.03733355 -0.1605404 0.53498286
0002c0 a2 bd 41 bd b6 e2 be bc 0a 83 60 bd 65 29 0f be
       -0.04729999 -0.023301464 -0.05481247 -0.13980635
0002d0 e8 96 a9 3b 07 49 dd 3d c2 fb a4 3d 1b 02 b3 bd
       0.00517546 0.108049445 0.080558315 -0.08740636
0002e0 34 af 99 bd 59 fa 6d bd 37 73 a0 bb 59 6a 5f bd
       -0.075041205 -0.05810008 -0.004896547 -0.05454478
0002f0 0e 29 2c bd 3d c6 25 3e 29 cd ef bc 4e d0 93 be
       -0.04203134 0.16188903 -0.029272633 -0.2886986
000300 84 5f 97 bb e7 fb 08 3e 3a 5f 3a 3e 6f 6b 81 3d
       -0.0046195406 0.13377343 0.18200389 0.063193195
000310 75 5c c2 3d f2 b6 fa bc f7 66 18 bd 7b 0c 63 be
       0.09490291 -0.030604813 -0.03720757 -0.2217273
000320 78 05 10 3d 81 11 88 3c 3e fe d2 3c 63 da 87 3c
       0.035161465 0.016609909 0.025755998 0.016583627
000330 92 cc 6a bd 01 30 11 bd ed 94 3d be 71 be cf 3d
       -0.057324 -0.03544617 -0.18513842 0.10143746
000340 c4 9b 27 3d c8 c6 33 3c 87 46 a9 bd f4 50 f4 3d
       0.040920034 0.010972686 -0.08265405 0.11929503
000350 d3 db 02 3f b0 b4 40 bd cd 5b 18 bd 6b 34 6a 3d
       0.51116675 -0.047047317 -0.037196923 0.057178896
000360 6c 6f 31 3d e2 05 df bc e6 cf c1 bd 2b 7f 0b 3e
       0.04331915 -0.027224485 -0.094634816 0.1362273
000370 16 58 47 bd dc 87 98 3d 54 0f 4f bd d6 56 73 be
       -0.04866799 0.07447788 -0.050551727 -0.23763594
000380 18 06 e1 bb e6 4b ca 3d 65 f2 14 3e 31 03 ba 3e
       -0.0068671815 0.09877758 0.14545591 0.3633056
000390 c4 63 de 3d ba 0e 63 be 2f ea 4b bd 01 30 42 bd
       0.108588725 -0.22173586 -0.04978388 -0.04740906
0003a0 68 4a 23 bc 3c 5d cf 3d d4 ca 84 3c ef 00 73 3d
       -0.00996647 0.10125205 0.016209997 0.059327062
0003b0 7a 52 51 3d e4 b3 bf be ae c1 88 bd ac 82 01 be
       0.051104046 -0.37441933 -0.066775665 -0.12647504
0003c0 07 78 c5 3d 1c 5d 45 be 17 cf cd 3c da a4 e0 3c
       0.09642034 -0.192738 0.025123162 0.027422357
0003d0 63 fc ed 3d 75 ef 04 39 f7 6e 2d 3e 03 08 54 ba
       0.116204046 0.00012677706 0.16936861 -0.0008088352
0003e0 24 f2 05 3e 02 e2 07 3d 18 a4 59 3d e4 58 5b 3d
       0.1308065 0.033174522 0.053135008 0.05355157
0003f0 0f 72 e7 3d d0 82 f4 3d 57 73 18 3c 76 fc 71 3d
       0.11301052 0.11939013 0.009304843 0.059078656

fc3.bias f4 [128]
000000 32 40 a3 3d 6e 53 9f bd d7 2a 61 bd 94 c3 27 3e
       0.07971229 -0.07779585 -0.054972496 0.16383201
000010 07 57 59 bd 68 e8 92 3d 70 8b ce 3d c3 61 02 bd
       -0.05306151 0.07173234 0.10085189 -0.031831514
000020 1f f5 de 3c a9 fc ae bd d7 ee c0 bd 1c 1a 88 bc
       0.027216492 -0.08544285 -0.09420555 -0.016614012
000030 5d 7c 42 3e 53 4e 4e 3d f6 90 3c 3e ee f2 10 3e
       0.18992753 0.050367665 0.18414673 0.1415517
000040 7e 24 0a bd 19 c7 3f 3e 7a e6 ba 3d 72 0d 8f be
       -0.033726208 0.18728293 0.09125991 -0.27939945
000050 c1 88 31 3c 93 8d e4 bc 4e b0 7c bd 4e 62 54 bc
       0.010835827 -0.02789954 -0.061691575 -0.012962891
000060 81 77 2b 3e 71 37 53 bd 8e 86 c4 3c fd 68 44 be
       0.16744806 -0.051566545 0.023989942 -0.19180675
000070 bd 3f 21 3e 3f 63 53 bd fb 28 54 bd a4 95 8a bd
       0.1574697 -0.05160832 -0.051796895 -0.06766823
000080 59 db 79 3e f5 34 15 bd 9a 08 58 bb c0 b7 cb 3b
       0.2440008 -0.036427457 -0.0032964111 0.006216973
000090 1c 42 c1 3c 9b dd 60 bc 33 0a 82 bd 32 e0 8a 3d
       0.023591094 -0.01372471 -0.063496016 0.06781043
0000a0 32 66 18 3e 50 c2 d3 3d 32 85 07 3e 6a 45 4f bd
       0.14882734 0.103397965 0.13234404 -0.050603308
0000b0 3e b6 5e be 28 09 2c 3e 47 12 3e 3d 2b 87 13 be
       -0.21749207 0.16800368 0.04640415 -0.14407031
0000c0 95 6f 35 3e de 9d bb bd c0 ac 2e 3d 86 89 bc bd
       0.17718346 -0.0916097 0.042645216 -0.09205918
0000d0 d8 3d 7c bc f4 39 9a 3d 89 b2 55 3d 4b 17 31 3d
       -0.015395604 0.07530585 0.052172218 0.043235105
0000e0 89 4b 3b 3e cc 72 9d bb 8f ab 39 bd 17 ba 98 bc
       0.18290533 -0.0048049446 -0.045329627 -0.018643422
0000f0 db d8 89 be 7a 2c 8c bd 24 ac 26 be 97 29 c9 bb
       -0.2692326 -0.06844421 -0.16276604 -0.006138991
000100 f5 82 6a bd 08 04 6d bd 67 df 04 be 45 09 02 3c
       -0.057253797 -0.057865173 -0.12975846 0.00793678
000110 e9 96 5d bd 84 e3 af bd 34 f2 80 bd 76 43 18 bd
       -0.054098997 -0.08588317 -0.062961966 -0.03717371
000120 b7 d6 02 be d2 60 5c bd 8a b5 28 bc 07 10 ba bd
       -0.1277722 -0.053803273 -0.010297189 -0.09085088
000130 cd 15 e3 bd 0c fc ca 3d 4c 11 65 bd 66 f9 95 3d
       -0.110881425 0.099113554 -0.0559247 0.073229596
000140 d7 30 9c 3d f0 30 28 3e 97 ef 30 3e eb 16 f8 3d
       0.07626503 0.16424918 0.17278896 0.12113746
000150 30 b7 06 3b 14 a8 fc 3c e4 10 f5 3d 5e 8e a8 bd
       0.0020555966 0.030841865 0.11966112 -0.082302794
000160 b8 d1 c8 bc bb a1 cf bd 40 17 49 bd 85 4e 5b be
       -0.024514064 -0.101382695 -0.04909444 -0.21416672
000170 e9 9a 0a 3d 41 b7 d6 3c 1e 4f ba 3d a7 07 9c 3c
       0.03383914 0.02621043 0.09097122 0.019046618
000180 d3 b5 6c 3e d0 c5 27 bd fc 99 ee 3d 4e 97 21 bd
       0.23116235 -0.040960133 0.11650464 -0.039450936
000190 dc bc ec 3b 9e a2 d3 3c 17 28 09 3c b7 42 2e be
       0.007224662 0.025834378 0.008371375 -0.17017637
0001a0 c2 73 58 3e 1d 13 2e bd bf 42 d0 bb 76 8b 1a 3e
       0.21137908 -0.042498697 -0.006355613 0.15092263
0001b0 e4 01 12 be ca 40 0a be 05 db a5 bd 35 87 a1 3d
       -0.14258534 -0.13501278 -0.08098415 0.07887117
0001c0 87 11 e3 3d 9d 6d dd 3d e5 6e f2 bd 08 f3 26 bd
       0.110873275 0.10811923 -0.11837558 -0.040759116
0001d0 b5 3a 26 3e fa 0d 98 3d 36 72 93 3c 84 88 bb bd
       0.16233332 0.07424541 0.017998796 -0.09156898
0001e0 ca 1c 6f 3e e1 01 19 3d 93 6c 4b be 11 ef 94 3d
       0.23350826 0.037355307 -0.19865637 0.07272161
0001f0 54 4a 93 bd 69 18 fc 3d e8 a7 c6 3d 11 e8 7c 3d
       -0.07191911 0.12309343 0.09699994 0.061744753

fc4.weight f4 [32, 128]
000000 cb c4 24 3d c1 62 87 bd 75 54 90 bc 3f a0 4b 3e
       0.04022674 -0.06610633 -0.017618397 0.19885348
000010 9a a5 76 3d 8c c6 bd bc 80 47 20 be c6 8a 8b 3c
       0.060216524 -0.023165964 -0.15652275 0.017033946
000020 97 2e f3 bc 01 7c 68 3e 8d b6 1a bd da f1 81 bd
       -0.029685302 0.22703554 -0.03777175 -0.06344958
000030 fb 93 92 3d 45 67 fe 3d 93 5f 31 3c b6 de 08 3e
       0.07157131 0.12422041 0.010826009 0.13366207
000040 b9 07 7c 3d ec 8e 57 3d 92 75 b5 3b b4 76 05 bf
       0.061530802 0.052626535 0.005537697 -0.5213425
000050 c1 34 a4 3d 06 55 3f 3d 2b 2b 67 3d 41 f6 5e 3d
       0.080178745 0.046711944 0.056437653 0.054434065
000060 7f f1 85 3d f0 09 cc bc c6 ab 82 3d 15 19 c2 be
       0.06540202 -0.024907082 0.063804194 -0.3790976
000070 72 b0 96 bb ab a4 5e 3e 9e 5d 2b bd a4 b1 d9 bc
       -0.0045986706 0.21742503 -0.041837327 -0.026573963
000080 5d 5b 5f 3d c1 47 d0 3c 84 fc 0d 3e ce 2d 3c 3e
       0.05453049 0.02542484 0.13865858 0.18376848
000090 08 5c 5b 3e 75 1c 92 bb 41 63 6b bc f5 49 9d be
       0.21421826 -0.0044589587 -0.014366926 -0.30720487
0000a0 97 e2 1e 3e 12 73 f0 bd 5f b0 c6 3d 2d e9 8b bd
       0.15516125 -0.11740698 0.09701609 -0.06831584
0000b0 d7 ed 65 3d 15 ca 39 3e 49 d0 58 3e ff dd c8 3d
       0.056135025 0.18143494 0.21173204 0.098079674
0000c0 b3 0c 1a 3e 14 90 40 be d2 a2 59 bd 9d 97 02 bd
       0.15043907 -0.18804961 -0.053133793 -0.03188287
0000d0 ec 86 87 3e 72 b4 9b 3e 29 c1 00 3f 7f 29 45 3e
       0.26470125 0.30411106 0.5029474 0.19254111
0000e0 3d 80 ae 3c 9d b3 71 bc 91 bf 90 bd ef f7 31 3d
       0.021301383 -0.014752296 -0.070677884 0.04344934
0000f0 bb f9 c9 bd dc 30 79 3d a0 69 2f be ed 3b 97 bc
       -0.098620854 0.06083761 -0.17130136 -0.018461192
000100 51 7e 30 3d e3 91 3c 3d 24 cb b4 3d 77 fa 1d 3e
       0.043089215 0.046037566 0.088278085 0.15427576
000110 d1 f6 f7 3c 99 cc 1f be 94 9a 07 3d 81 38 32 3d
       0.030269058 -0.15605392 0.0331064 0.043510918
000120 2e 81 49 bd a8 6a a6 3d e9 d0 79 3d 02 7d 5b 3d
       -0.04919546 0.08125812 0.060990248 0.053586014
000130 c5 5b 2a bd ac ed ea bc c1 b5 9c 3d 9b 99 4d bd
       -0.041591424 -0.028677784 0.07651854 -0.050195318
000140 10 ec ee 3d d9 db 73 3d 99 06 ac 3d 08 09 1a 3e
       0.11666119 0.059535835 0.08399696 0.15042508
000150 ed ef 06 bd f5 05 9f 3d 87 33 39 3e 18 b2 b4 3c
       -0.032943655 0.07764808 0.18086062 0.022057578
000160 79 fb 6e bd fc 62 96 bd 61 e2 0d bb 55 0c 90 be
       -0.05834529 -0.073430985 -0.0021649825 -0.2813441
000170 8c 75 5f bd 8b df 7f bd 8e 8b 4a 3e 6f 48 9f 3d
       -0.05455546 -0.062469047 0.19779798 0.077774875
000180 d5 19 01 3e 99 b5 94 bc 06 c6 0a 3e 0d 5a ab bd
       0.1260751 -0.018152999 0.13552102 -0.08366785
000190 30 f2 62 3c 9b 5b 2c 3d 59 b0 bf bc 3e 61 f2 bd
       0.013851687 0.04207955 -0.023399519 -0.11834954
0001a0 da aa 8c 3d 2f ed 6e be 21 5b 9c 3d 10 9d 08 3e
       0.06868525 -0.23332666 0.07634569 0.13341165
0001b0 9c 10 c1 3d 8d f9 69 bd 6d 4d 3d bd 2c 66 91 be
       0.09426996 -0.057122756 -0.046216417 -0.28398263
0001c0 37 6f 93 3d cd cb 5e 3d 0a 65 5d 3c 84 fc 28 bd
       0.07198947 0.05439358 0.013512859 -0.041256443
0001d0 30 b8 5a 3e ea 2c a4 be 57 ab 89 3c 7a e2 28 3d
       0.21359324 -0.32065517 0.016805334 0.04123161
0001e0 3a 9d ba 3d ad 04 b3 bc 72 48 4c be c7 91 0b bd
       0.0911202 -0.021852816 -0.1994951 -0.03407457
0001f0 3c 41 20 bd 6d 03 7d 3e 85 24 a2 3c dc 8c 78 3d
       -0.039124712 0.24708338 0.019792804 0.06068121
000200 86 ee 95 bd b7 e6 eb 3c 38 20 84 3d 80 4e 5d bd
       -0.07320885 0.028796537 0.06451458 -0.05402994
000210 82 af 5b bd 02 65 b9 bc cf 0c 5f bc 30 e0 3b 3d
       -0.053634174 -0.022631172 -0.013613894 0.0458681
000220 37 dc 17 3d c5 6b 46 bd 56 a4 87 3d 17 e2 55 3d
       0.037075248 -0.04844262 0.066231415 0.05221757
000230 17 36 47 bb 92 a5 9a bd 6c 36 bf 3c a8 7d ca 3c
       -0.003039723 -0.07551111 0.02334138 0.02471812
000240 35 bb d2 ba 55 7d 8d bd d2 33 99 3c b1 06 a1 3c
       -0.001607752 -0.06908671 0.018701468 0.019656511
000250 f1 6a 58 bd 55 de 27 3d cc 0e 9c bc 88 90 a9 bd
       -0.052836362 0.040983517 -0.019050024 -0.0827952
000260 42 76 64 3b e6 11 0c 3d da 4f aa bd 08 38 89 bb
       0.0034860526 0.034196757 -0.08316012 -0.0041875876
000270 de 69 2c 3d 14 94 6d bd 01 48 31 3d 8d 37 20 3c
       0.04209315 -0.058002546 0.04328156 0.009778869
000280 79 ff c8 bd 56 b0 5b 3c 2c 83 af bd 2f d3 0f bc
       -0.098143525 0.013408741 -0.08569941 -0.008778377
000290 d4 3e 9d bd 9d 1e b0 3c b0 71 76 3d 1f 11 12 bd
       -0.07677999 0.021498973 0.060167015 -0.03566086
0002a0 39 c0 38 bd 37 76 89 bd 66 2b 12 bd 5d bb ac 3b
       -0.045105193 -0.06712001 -0.03568592 0.005271359
0002b0 07 84 57 3d 4d 9f 54 bd 4b fa 76 3d fd 71 03 bd
       0.052616145 -0.051909734 0.06029729 -0.03209113
0002c0 4c c6 06 bc 32 d8 66 3d 72 c0 b2 bc db 45 6f 3d
       -0.008225989 0.056358524 -0.02182028 0.05841623
0002d0 91 a3 1a bd cb e3 80 3b f1 d8 2a 3d 08 cd 36 bc
       -0.037753645 0.003933405 0.041710798 -0.011157282
0002e0 ef 42 8a 3d 38 4f 6f 3c 3b 26 fd bc 97 a2 0c 3d
       0.06751048 0.01460629 -0.030902019 0.034334745
0002f0 4b c2 36 bd e1 c4 10 ba 76 b5 a4 bd 85 81 91 3d
       -0.044618886 -0.00055225013 -0.080424234 0.07104782
000300 d1 5d aa 3b de 3a 57 bc 95 1e 71 3d 2c 97 c0 3c
       0.005199172 -0.013136594 0.058867056 0.023509584
000310 2a f8 96 3d 97 76 ac 3c da 44 18 3d f9 c0 c4 3b
       0.07371552 0.021052642 0.037175037 0.0060044494
000320 2e 23 74 3d 3c 35 75 bb 64 ef bb 3c c2 72 15 bb
       0.059603862 -0.0037415763 0.022941299 -0.0022803997
000330 e9 d1 9b bc 3a ad 56 bd 90 6e 98 3d 7d 9d 39 3d
       -0.019020991 -0.052411295 0.07442963 0.04531621
000340 33 d4 4c bd 7a 4c 25 3c 27 ff cf 3b c4 41 a9 bd
       -0.050007056 0.010089034 0.006347555 -0.08264497
000350 af d9 b8 bc 7b 8d c4 bd b2 64 41 bd e8 37 93 bb
       -0.022564737 -0.09597298 -0.04721517 -0.0044927485
000360 ee 2e 16 bd e5 d8 37 bc 1e 9e 6b 3d 4a 9c 9e bd
       -0.03666585 -0.011221145 0.05752384 -0.077446535
000370 54 22 93 bd d7 05 10 bd 2d 3f cc bd 2e 0e 56 3d
       -0.07184282 -0.03516182 -0.09972987 0.052259617
000380 38 a6 83 3d 0f 9a 3c bd 92 e2 73 bc d7 2c 62 3d
       0.06428188 -0.04604536 -0.014885562 0.055218544
000390 1a 25 93 3d e4 6c cf b8 30 00 6c bd df a3 b0 bd
       0.07184811 -9.8908116e-05 -0.057617366 -0.08625006
0003a0 18 f8 81 3d 95 d6 09 bc 27 5e 0e 3d 43 e9 f5 3b
       0.06346148 -0.008412977 0.03475776 0.0075046136
0003b0 11 4c c7 3b 6a 80 e3 bc e6 95 93 3d 02 ae 71 3d
       0.006082066 -0.027771194 0.07206325 0.059003837
0003c0 6d 8d bd bd e0 d7 9e bd 75 c4 d7 bd c2 14 41 bd
       -0.092554905 -0.07756019 -0.10535518 -0.047138937
0003d0 8c 84 2f bd 2d 5b 33 bd 7b 0e 95 bd e0 8e 47 3c
       -0.042851016 -0.043788124 -0.072781526 0.01218006
0003e0 6f 43 86 3d a0 25 ae 3c b0 9f 7f bd 3a 43 ec bc
       0.06555831 0.021258175 -0.06240815 -0.02884065
0003f0 d5 ce a7 3d 99 cc b3 bd 55 83 a1 bd 13 13 96 3c
       0.08193747 -0.08779258 -0.07886378 0.018319642

fc4.bias f4 [32]
000000 d2 07 4e 3e a4 45 21 bd e8 fc 78 bd 14 0e 35 be
       0.2012017 -0.039373055 -0.060788065 -0.17681152
000010 62 1c d9 3d 57 d8 29 3e 3d f7 ac 3d ad 55 a0 3d
       0.10601117 0.16586433 0.084455945 0.07828841
000020 05 f1 84 3d 2e 7b 7a 3d 17 e6 ca bc 86 a3 aa bd
       0.06491283 0.06115263 -0.024767919 -0.08331971
000030 24 f3 4f 3d f1 0f 81 bd 62 69 d6 bd cc 3f 92 3c
       0.050768986 -0.06301869 -0.10469319 0.017852686
000040 84 ae b3 bd 4d 68 e7 bd 5e 54 c9 bc 1c 9c e0 3c
       -0.087735206 -0.11299191 -0.024576362 0.027418189
000050 96 84 55 3b cf fe 9b 3d a2 7e 9f 3c 48 bf 33 3d
       0.0032580248 0.0761696 0.019469563 0.043883592
000060 98 1c 2d 3d ea eb df bd 9c 32 bf bd 04 7e 53 3e
       0.042263597 -0.10933669 -0.09335825 0.2065354
000070 29 51 60 3e b7 54 f4 3d 1a e6 ee bc f2 50 41 3e
       0.2190596 0.119302206 -0.029162455 0.18878534
