data/model.pth (torch, 694959 bytes, 10 tensors)

fc1.weight f4 [512, 8]
0	0x3e64de72	0.22350481
1	0xbd9e0323	-0.07715442
2	0x3da62b3b	0.08113714
3	0x3e32c1c4	0.17456728
4	0x3eb53e71	0.35399202
5	0xbf094b59	-0.53630596
6	0x3df3ef33	0.11910858
7	0xbe5002a7	-0.20313512
8	0x3eb498e0	0.35272884
9	0xbcc070e0	-0.023491323
10	0xbeeadec8	-0.45873094
11	0xbd89f3b7	-0.06735938
12	0x3ea64fdc	0.32482803
13	0x3dc7c119	0.09753627
14	0x3e9225b1	0.2854438
15	0xbe1dc6f1	-0.15407921
16	0x3e8484ba	0.25882512
17	0x3e0ce1fb	0.1375808
18	0xbe0feb59	-0.14054622
19	0x3dc24590	0.09485924
20	0x3e48db44	0.19614893
21	0x3d847d57	0.06469219
22	0xbccc6397	-0.024949832
23	0x3eaa4bff	0.33261105
24	0x3ec71be8	0.38888478
25	0xbea8c16c	-0.3296007
26	0xbf0d574e	-0.5521134
27	0x3f6c8dbb	0.92403764
28	0x3e74bdf6	0.2390059
29	0x3e459034	0.1929329
30	0xbccbc139	-0.02487241
31	0x3ebe6dd9	0.37193182
32	0x3d8fbde1	0.070186384
33	0xbc6dbe33	-0.014510679
34	0xbec6528b	-0.3873485
35	0xbdd0491d	-0.10170195
36	0x3ebb86e4	0.3662635
37	0xbe65da57	-0.22446571
38	0xbe766d45	-0.2406512
39	0x3e7ec2bf	0.24878977
40	0xbc312e81	-0.01081431
41	0xbedd6e7b	-0.43248352
42	0x3dad8adb	0.0847375
43	0xbe64badf	-0.2233691
44	0x3db64ff0	0.089019656
45	0x3d88d397	0.066809826
46	0x3dbe827c	0.09302232
47	0xbedba5e2	-0.42899996
48	0xbe899586	-0.2687189
49	0x3e8bc396	0.27297658
50	0x3edf4f99	0.43615416
51	0x3f139274	0.57645345
52	0x3e1add81	0.1512356
53	0x3ebc1eee	0.36742347
54	0x3f024706	0.50889623
55	0xbecd5854	-0.40106452
56	0xbe7e303e	-0.2482309
57	0x3e895546	0.2682287
58	0x3cb62870	0.022236079
59	0x3e626d16	0.22111925
60	0x3f21116e	0.6291722
61	0xbe938fc4	-0.28820622
62	0x3da396fa	0.07987781
63	0x3ee3b527	0.44474146
64	0xbcdcad3e	-0.026938077
65	0x3d3bf0eb	0.045884054
66	0xbdfad009	-0.12246711
67	0x3d9e897c	0.07741067
68	0x3e216598	0.15761411
69	0x3ef2161c	0.47282493
70	0x3d80ccca	0.062890604
71	0xbef20466	-0.4726898
72	0xbbb10ae2	-0.0054029087
73	0xbe6d46a9	-0.23171486
74	0xbeb0b7e4	-0.34515297
75	0x3e042a5d	0.12906785
76	0xbea6aa92	-0.3255201
77	0x3e977afe	0.29586023
78	0xbcc09bba	-0.023511756
79	0x3e2638e3	0.16232638
80	0xbdab963b	-0.083782636
81	0xbe12b1bb	-0.14325611
82	0x3dd7a8c4	0.10530236
83	0xbe6dcc92	-0.23222569
84	0xbdd004bc	-0.10157153
85	0x3daf5abd	0.08562229
86	0xbd4b3a4d	-0.049616147
87	0x3e4e6cb2	0.20158651
88	0x3bb5a8fa	0.005543825
89	0x3e8d7b81	0.27633289
90	0xbce2761a	-0.027644206
91	0x3f3c6354	0.7358906
92	0x3e79a833	0.24380569
93	0x3c16e297	0.009209297
94	0x3c901e9e	0.017592724
95	0x3e0eea6e	0.13956615
96	0x3cd8e77a	0.026477564
97	0xbf710e4b	-0.94162434
98	0xbf0d7bca	-0.5526701
99	0x3bd85c14	0.0066027734
100	0x3f08a43d	0.5337561
101	0x3edd1bb2	0.43185192
102	0x3bf674fe	0.007521271
103	0xbd935fde	-0.071960196
104	0x3f14ee7c	0.581764
105	0x3e4d735b	0.20063536
106	0xbd3d7059	-0.04624972
107	0x3eddd8a2	0.4332934
108	0x3ec8bde2	0.3920737
109	0x3f127c33	0.5722076
110	0xbe416a47	-0.18888198
111	0xbe00d8e5	-0.12582739
112	0xbf240a9c	-0.6407869
113	0xbe6038c0	-0.21896648
114	0x3ebff229	0.3748944
115	0xbec620d0	-0.3869691
116	0xbe23ead9	-0.16007556
117	0xbf0afb76	-0.5428995
118	0xbdc0d7ba	-0.094161466
119	0x3d9875bd	0.07444332
120	0x3d8eb5d1	0.069682725
121	0xbe1a2d6b	-0.15056388
122	0xbe016673	-0.12636738
123	0xbd9d8e2e	-0.07693134
124	0xbf18bdf2	-0.59664834
125	0xbdcfb433	-0.10141792
126	0x3e5227d9	0.20523013
127	0x3e986eca	0.29772025
128	0xbe10f740	-0.14156818
129	0xbd81bbe6	-0.06334667
130	0xbf14e5dc	-0.5816324
131	0x3f90b9ae	1.1306665
132	0x3e1f2ea8	0.15545142
133	0x3e99f351	0.30068448
134	0xbea36163	-0.31910238
135	0x3e87c5e6	0.26518172
136	0xbea0068f	-0.31255004
137	0x3e098c5a	0.13432446
138	0xbf484f2c	-0.78245807
139	0x3df5bde7	0.119991116
140	0x3dd97593	0.10618129
141	0xbdf7c9f2	-0.12099065
142	0x3e786a79	0.24259366
143	0x3d89d8b3	0.06730785
144	0x3d0dfe21	0.034666184
145	0xbcea9169	-0.02863379
146	0xbd1e2073	-0.038605165
147	0xbd77bdee	-0.060483865
148	0x3d9f69c3	0.07783844
149	0xbc733239	-0.014843517
150	0x3e5990de	0.21246669
151	0x3ea28690	0.31743288
152	0xbb892a71	-0.0041859676
153	0x3d2ce136	0.042206965
154	0xbc0bf3e7	-0.008542038
155	0xbe92724c	-0.28602827
156	0x3e829e88	0.25511575
157	0x3c0b05bd	0.008485255
158	0xbeae364c	-0.340258
159	0xbed641d5	-0.418471
160	0xbdb13d98	-0.08654326
161	0xbd7ca2fa	-0.061678864
162	0x3db564f1	0.08857144
163	0xbe94b040	-0.29040718
164	0xbe76200d	-0.24035664
165	0xbe4cce06	-0.20000467
166	0xbda0c104	-0.07849315
167	0x3ec1939f	0.37807938
168	0x3d8f099d	0.069842555
169	0xbe46a3b1	-0.19398381
170	0x3d8199f7	0.063281946
171	0x3e4632d3	0.19355325
172	0x3e5fef92	0.21868733
173	0xbeef8f64	-0.46789086
174	0x3e945f04	0.2897874
175	0xbe119a4f	-0.1421902
176	0x3ea8a4a4	0.3293811
177	0xbdabfd54	-0.08397928
178	0x3e69460b	0.22780626
179	0xbe816558	-0.25272632
180	0xbefec446	-0.4975912
181	0xbe7b93bd	-0.24568076
182	0x3e465bf5	0.19371016
183	0xbe457922	-0.1928449
184	0xbd15e711	-0.036597315
185	0xbf2141a1	-0.62990767
186	0x3e6b3899	0.22970809
187	0x3e8465ec	0.2585901
188	0x3d9ca849	0.07649285
189	0xbddd312f	-0.10800397
190	0x3ea103b4	0.31448138
191	0xbe2e0d47	-0.16997252
192	0xbd3e0f5a	-0.04640136
193	0xbea6bf27	-0.32567713
194	0xbb28c892	-0.0025754315
195	0xbe1666fd	-0.14687724
196	0xbcd5a2c6	-0.026078593
197	0xbcbd14a5	-0.023081133
198	0xbd945415	-0.072426
199	0xbda3f374	-0.080054194
200	0x3e9e23a6	0.30886573
201	0xbf005f2d	-0.50145227
202	0x3ddcf263	0.10788419
203	0x3e31aa0e	0.17350027
204	0xbe89d58b	-0.26920733
205	0xbd5ab898	-0.0533987
206	0xbd67806e	-0.056518964
207	0x3e12c1d3	0.1433175
208	0x3e3945e5	0.18093069
209	0xbe580f33	-0.21099548
210	0x3f233e4d	0.6376694
211	0x3df68d37	0.12038653
212	0x3ee8dbab	0.45480093
213	0x3ee15f3a	0.44017965
214	0xbe8b6522	-0.27225596
215	0xbf079d1f	-0.5297412
216	0x3ea2f52f	0.31827685
217	0x3e8ebc39	0.27877977
218	0x3f10967e	0.5647963
219	0xbdd31695	-0.103070416
220	0x3d4eef6d	0.050521303
221	0xbe138744	-0.14407068
222	0xbe1b6a3c	-0.15177244
223	0x3e8aebb3	0.2713295
224	0x3d95ecec	0.0732058
225	0x3e9c2351	0.30495694
226	0x3d2cd87a	0.042198636
227	0xbe8a013e	-0.26954073
228	0xbe8d144d	-0.2755455
229	0xbc3f164f	-0.011663034
230	0x3e946f0a	0.28990966
231	0xbf08635d	-0.53276616
232	0x3e8b4805	0.27203384
233	0xbc8275d8	-0.015925333
234	0xbd5b22b6	-0.0534999
235	0xbe95eff5	-0.29284635
236	0xbe7e63d6	-0.24842772
237	0x3e4f8150	0.20264173
238	0xbc8e7541	-0.017389895
239	0x3d814feb	0.06314071
240	0x3bfb6453	0.0076718717
241	0xbf8568ec	-1.0422645
242	0xbf0f0df1	-0.5588065
243	0xbe475e9a	-0.19469681
244	0x3ea07f8a	0.31347305
245	0xbe423b19	-0.18967856
246	0x3f05b725	0.5223258
247	0xbeef5293	-0.46742687
248	0xbe81038c	-0.2519802
249	0xbef10a30	-0.47078085
250	0xbe884bdb	-0.26620373
251	0xbe25e5c3	-0.16200928
252	0x3dc16bea	0.09444411
253	0x3e536d3a	0.20647135
254	0x3ecc494a	0.39899665
255	0xbe709819	-0.2349552

fc1.bias f4 [512]
0	0x3db1811b	0.08667203
1	0xbe3364a9	-0.17518868
2	0xbe342448	-0.17591965
3	0xbe8461b8	-0.25855803
4	0xbda822ad	-0.08209739
5	0x3e4b6a23	0.19864707
6	0x3db779a2	0.089587465
7	0xbec95230	-0.39320517
8	0x3d206992	0.03916318
9	0x3e988478	0.29788566
10	0x3ea75856	0.32684582
11	0xbdfdc5aa	-0.12391217
12	0xbb23fe29	-0.0025023317
13	0xbebbef41	-0.36705974
14	0xbe697324	-0.22797829
15	0x3dd62226	0.10455732
16	0xbe5a9b7e	-0.21348378
17	0x3e48f06b	0.19622962
18	0x3d07ee06	0.03318598
19	0xbd9116f4	-0.07084456
20	0x3de8cb05	0.11366848
21	0x3e8af04f	0.27136466
22	0xbd98d1ca	-0.07461889
23	0x3ea396f4	0.31951106
24	0x3e259f35	0.16174014
25	0x3e19a21c	0.15003246
26	0x3d929a16	0.07158296
27	0x3bf9238a	0.0076031135
28	0xbe2edfdc	-0.17077583
29	0x3db954c0	0.09049368
30	0xbe23b276	-0.15986046
31	0x3e11a513	0.14223127
32	0xbe524117	-0.20532642
33	0x3dcde78c	0.1005393
34	0x3a791577	0.00095017947
35	0xbdba9322	-0.091100946
36	0xbe6fb50f	-0.23408912
37	0xbd00bc79	-0.03142974
38	0xbedb047f	-0.42776868
39	0x3eb5da4f	0.3551812
40	0xbd45a3ea	-0.048252024
41	0xbd8b68f9	-0.06807131
42	0x3cae14ff	0.021250246
43	0xbe35531f	-0.1770749
44	0xbe2b5dda	-0.1673502
45	0x3dbe7c02	0.09300996
46	0x3c435632	0.011922406
47	0x3e73dc8b	0.23814599
48	0x3e23e7bf	0.16006373
49	0xbd20bff8	-0.039245576
50	0x3e8b18e7	0.27167436
51	0xbea7220e	-0.3264317
52	0x3db161c9	0.08661229
53	0x3dd319a6	0.103076264
54	0x3e342ca9	0.17595161
55	0x3eb95af3	0.362022
56	0x3cc4c774	0.024020888
57	0xbe73c3f0	-0.23805213
58	0x3e31e217	0.17371403
59	0x3d48db04	0.049036995
60	0xbd5c1a01	-0.053735737
61	0x3dacaa0f	0.084308736
62	0xbe4e1853	-0.20126466
63	0x3e63e7c2	0.22256377
64	0x3e43647b	0.19081299
65	0x3e234a1e	0.15946242
66	0x3d9d4346	0.07678847
67	0xbe86c25e	-0.26320165
68	0xbe9aa986	-0.3020746
69	0xbe682ef1	-0.22674157
70	0x3defb554	0.117045075
71	0xbe6da164	-0.23206097
72	0x3e54c2b3	0.20777397
73	0x3cd98daa	0.026556809
74	0x3e97d097	0.2965133
75	0x3e8d0f36	0.27550668
76	0x3c9b1ca3	0.018934553
77	0x3e8cb9b0	0.27485418
78	0xbeae2684	-0.3401376
79	0x3d9dd7cc	0.077071756
80	0x3eb6e297	0.3571975
81	0x3e767b17	0.24070393
82	0xbdbdec5f	-0.092736
83	0xbec6cc00	-0.38827515
84	0xbd223daf	-0.039609607
85	0xb9ff4a7e	-0.0004869289
86	0x3b3cafec	0.002879138
87	0x3d9bcf23	0.076078676
88	0xbe419b63	-0.18906932
89	0x3b862c39	0.004094627
90	0x3e437bff	0.1909027
91	0xbe655ed6	-0.22399458
92	0x3de8d6dd	0.11369107
93	0xbe97b1fa	-0.29627973
94	0xbd82c112	-0.063844815
95	0xbee92b30	-0.45540762
96	0xbea244df	-0.3169317
97	0x3e8eeccd	0.2791504
98	0xbeade693	-0.33964977
99	0x3da89bdf	0.08232855
100	0x3e8d264c	0.2756828
101	0x3e3f9744	0.18710047
102	0x3e7d62e7	0.2474476
103	0xbe5eda2b	-0.21762912
104	0xbdf30a10	-0.11867154
105	0xbe2e9d24	-0.17052132
106	0x3e811381	0.25210193
107	0xbeb0437f	-0.34426495
108	0x3cbbe838	0.022937879
109	0x3e258706	0.16164789
110	0x3e113648	0.14180863
111	0xbd3e54b6	-0.046467505
112	0xbe98095e	-0.29694647
113	0xbe4b3368	-0.19843829
114	0xbeae088f	-0.33990905
115	0x3e4c957a	0.19978896
116	0x3daf304e	0.08554135
117	0xbe7150eb	-0.23566024
118	0xbe6857bf	-0.22689722
119	0x3e6cda80	0.23130226
120	0x3e11c572	0.14235476
121	0x3bda65c5	0.006664964
122	0xbde8796f	-0.113512866
123	0xbe4d0753	-0.20022325
124	0xbea8d220	-0.32972813
125	0xbe5a2752	-0.21304062
126	0x3c7ddc88	0.015494473
127	0x3d054757	0.032538738
128	0x3dfeecfc	0.12447545
129	0xbd093d9c	-0.03350602
130	0xbd2ceeff	-0.042220112
131	0x3c743993	0.014906305
132	0x3e32dbf9	0.17466725
133	0x3ca5651f	0.02018982
134	0x3d10810c	0.03527932
135	0x3e5c50b0	0.21515155
136	0xbebd3769	-0.36956337
137	0xbd05a0e2	-0.032624133
138	0xbe0e6597	-0.13905941
139	0x3ea05f48	0.31322694
140	0x3e5ec3f3	0.21754436
141	0xbe7e6dfb	-0.24846642
142	0x3e98c9b0	0.29841375
143	0xbd50daf6	-0.050990067
144	0xbd23e10c	-0.040009543
145	0x3df3fdc0	0.11913633
146	0x3e6ef04c	0.23333853
147	0xbe0f4644	-0.13991648
148	0x3dd7870a	0.105238035
149	0xbd28cc73	-0.041210603
150	0xbea9fa7a	-0.3319891
151	0x3e95f53b	0.29288658
152	0x3dfb16b0	0.12260187
153	0x3dd82657	0.10554188
154	0xbed4ca48	-0.41560578
155	0x3c8d8e44	0.017279752
156	0x3d831c20	0.06401849
157	0xbe10bd55	-0.14134724
158	0x3e0bc9b0	0.13651156
159	0x3e2b15ce	0.16707537
160	0x3e19c68b	0.15017144
161	0x3d21fbec	0.039546892
162	0xbc9c3595	-0.019068519
163	0xbc0823da	-0.008309329
164	0x3c60df93	0.013725179
165	0xbebf4261	-0.3735533
166	0x3c300aca	0.01074476
167	0xbe8147d2	-0.25250107
168	0xbe5b2086	-0.21399125
169	0xbed02c3d	-0.4065875
170	0xbdfe343f	-0.12412309
171	0x3d6a81ba	0.057252623
172	0xbf01f5b6	-0.5076555
173	0x3e6fb75e	0.23409793
174	0xbbef9a90	-0.0073121265
175	0xbd6c8c87	-0.057751205
176	0xbeec9aea	-0.4621194
177	0xbbe48859	-0.0069742617
178	0x3e7e2a52	0.24820831
179	0x3d9a9856	0.07548587
180	0x3ce93e2d	0.02847203
181	0xbe5a0a14	-0.21292907
182	0xbeaf77a0	-0.34270954
183	0x3e2b3bbd	0.16722007
184	0x3d7b2988	0.061318904
185	0xbe662183	-0.22473721
186	0xbd58bc6f	-0.05291408
187	0x3dd59076	0.10427944
188	0xbc06de21	-0.008231671
189	0xbea7ddcf	-0.32786414
190	0x3e7d90b7	0.24762236
191	0xbe650ec0	-0.22368908
192	0x3d1c4a38	0.038156718
193	0xbe93d1eb	-0.28871092
194	0xbee7acc2	-0.4524899
195	0x3d5569fb	0.052103024
196	0x3e1e6030	0.1546638
197	0x3d26cb1e	0.04072105
198	0xbe620ad2	-0.2207444
199	0xbaaf27af	-0.0013363267
200	0x3d62f7cd	0.055412102
201	0x3e45b0a4	0.19305664
202	0xbd06b0f3	-0.032883596
203	0xbe0e0eed	-0.13872881
204	0xbdc8ebb4	-0.09810582
205	0x3deb75bc	0.114970654
206	0x3d8ce5f1	0.06879795
207	0x3dde38a3	0.10850646
208	0x3e162643	0.14663033
209	0xbe51bbfb	-0.20481865
210	0xbe132a4f	-0.14371608
211	0xbe626707	-0.22109614
212	0xbe8f99dd	-0.28047076
213	0x3dea0ce8	0.11428243
214	0x3e2168e9	0.15762676
215	0x3e4a5677	0.19759546
216	0xbe58b82e	-0.21164009
217	0x3c607da9	0.013701835
218	0x3e17a581	0.14809228
219	0xbd2291f4	-0.039689973
220	0x3b8c5049	0.0042820317
221	0x3ddfe0c6	0.10931544
222	0xbe5eacbe	-0.21745583
223	0x3e85fb81	0.26168445
224	0xbd84179f	-0.06449818
225	0xbd0892c6	-0.0333431
226	0xbe903151	-0.28162625
227	0x3bca4b71	0.006173544
228	0xbe6b290b	-0.22964875
229	0x3e01c0bd	0.1267118
230	0xbca46a40	-0.020070195
231	0xbcc37bcb	-0.02386274
232	0x3e4ee283	0.20203595
233	0x3e4492ea	0.19196668
234	0x3e62ec22	0.2216039
235	0x3e7bee5f	0.2460265
236	0xbe066c64	-0.13127285
237	0xbc9b5f59	-0.018966364
238	0xbd9335dd	-0.07188008
239	0xbdd5e107	-0.10443311
240	0x3e8ef237	0.2791917
241	0xbe055245	-0.13019665
242	0xbd7bbfa5	-0.061462063
243	0xbea2c063	-0.31787404
244	0xbef22702	-0.47295386
245	0x3e25ecb6	0.1620358
246	0x3df37565	0.118876256
247	0x3e3a1c99	0.18174972
248	0xbe69a0f6	-0.22815308
249	0xbe958ba1	-0.2920809
250	0x3e1f9a69	0.15586247
251	0xbe570415	-0.20997651
252	0xbdab3f7b	-0.08361717
253	0xbedea11f	-0.434823
254	0xbeb5f971	-0.3554187
255	0x3d060fa6	0.032729767

fc2.weight f4 [256, 512]
0	0xba702f88	-0.0009162356
1	0xb9894242	-0.00026180042
2	0x3ba623a2	0.0050701657
3	0x3c8971f4	0.01677797
4	0xbc9de93d	-0.019276256
5	0x3c86259a	0.016375352
6	0xbcd9026e	-0.026490416
7	0xbb7eb61e	-0.0038865875
8	0x3be00766	0.0068368195
9	0x3c674ed8	0.014117919
10	0xbd26285e	-0.04056584
11	0xbce2fe0e	-0.027709033
12	0x3ca4f911	0.020138295
13	0xbc85bf78	-0.016326651
14	0xbc0ba648	-0.008523531
15	0x3c7cc543	0.01542789
16	0xbcd7b12f	-0.026329605
17	0xbd014878	-0.031563252
18	0x3c420712	0.011842506
19	0xbb40a8b2	-0.0029397425
20	0x3cc8b7c2	0.024501685
21	0xbd13790b	-0.036004107
22	0xbcbb50e6	-0.022865724
23	0xbd0a86db	-0.033820014
24	0x3c01aa28	0.007914104
25	0x3cbf4177	0.023346646
26	0xbd139001	-0.036026005
27	0xbd1f20ad	-0.03884952
28	0xbccb557d	-0.024821037
29	0x3cafe73e	0.02147257
30	0xbbb2a7cc	-0.005452132
31	0xbd14c6f2	-0.03632254
32	0x3b8c996a	0.0042907493
33	0x3be3594c	0.0069381353
34	0x3c30cb4c	0.010790657
35	0x3c174c92	0.009234564
36	0xbcb84ef3	-0.022498583
37	0xbd17f1ab	-0.037095707
38	0xbc257631	-0.01009898
39	0xbcc7f98c	-0.024410985
40	0xbccdab97	-0.025106234
41	0xbc89a880	-0.01680398
42	0x3bbc170e	0.005740053
43	0xbccf24a5	-0.025286028
44	0x3c5a5c04	0.013327602
45	0x3cdf8cd9	0.027288841
46	0x3c59caf3	0.013293016
47	0xbb322cce	-0.002718735
48	0x3cab2f8a	0.020896692
49	0xbc3795b2	-0.011205124
50	0xbcab8a4d	-0.02093997
51	0x3cec22e1	0.028825225
52	0xbc4a4d13	-0.0123474775
53	0xbd1f37b0	-0.038871467
54	0xbd0d6c29	-0.034526978
55	0xbb82b779	-0.003989157
56	0xbd03e417	-0.032199945
57	0xbb27c413	-0.0025599047
58	0x3ca2fb47	0.019895209
59	0x3cfd2620	0.030901968
60	0xbbae02fa	-0.0053104134
61	0x3bb5fed3	0.005554059
62	0xbc30a6f2	-0.01078199
63	0xbc2f8cc4	-0.0107147135
64	0xbbb6580d	-0.0055646957
65	0xbaf408e2	-0.001861837
66	0x3c9293d0	0.017892748
67	0x3c868d7b	0.016424885
68	0xbb111b97	-0.002214169
69	0x3c471fd0	0.012153581
70	0x3d346a01	0.044046406
71	0x3b20f771	0.002456155
72	0xbd15979c	-0.03652154
73	0x3c1b9c57	0.009497724
74	0x3cbc4fe3	0.022987312
75	0xbcf429cc	-0.029805087
76	0xbc952b17	-0.018209023
77	0xbd2de30d	-0.04245286
78	0xbc8b738b	-0.017022869
79	0x3d011b19	0.031519983
80	0x3d16af90	0.036788523
81	0x3c90c651	0.01767269
82	0x3cae8975	0.021305779
83	0xbcf7631a	-0.030198622
84	0x38c05816	9.171681e-05
85	0xbd087540	-0.033314943
86	0x3cb17c57	0.021665735
87	0x3bbb1c08	0.0057101287
88	0xbca99436	-0.020700555
89	0xbb4e8e27	-0.0031517835
90	0x3c0a0ec4	0.008426372
91	0xbd1ae424	-0.037815228
92	0xbd2cf83b	-0.04222892
93	0xbd255efb	-0.040373784
94	0xbc950a8b	-0.018193504
95	0x3d1dafff	0.03849792
96	0xbbb95dcd	-0.005656934
97	0xbc067ed2	-0.008208947
98	0xbd1f651f	-0.038914796
99	0xbd2a38c9	-0.04155806
100	0x3ba5b937	0.0050574797
101	0x3c1c8a53	0.009554463
102	0xbcad5000	-0.021156311
103	0xbc5cb9cf	-0.013472035
104	0xbc3a4c5d	-0.0113707455
105	0x3c8c6999	0.017140197
106	0x3d141056	0.03614839
107	0x3cf956e5	0.030436942
108	0xbbc2bada	-0.0059426846
109	0xbcc60715	-0.024173299
110	0x3d27cc54	0.040966347
111	0xbd033c0f	-0.0320397
112	0xbd2a7ac9	-0.041621003
113	0x3cf640f7	0.030060275
114	0xbb9b07f5	-0.004731173
115	0xbcf491e0	-0.029854715
116	0xbabae8db	-0.001426007
117	0x3a12f434	0.0005605847
118	0xbb3af349	-0.0028526357
119	0x3cc46586	0.023974191
120	0xbbad0153	-0.005279699
121	0x3c90e2ec	0.01768633
122	0xbce09a88	-0.027417436
123	0x3c68a828	0.014200248
124	0xbcb080e5	-0.021545837
125	0xbc8c8091	-0.017151149
126	0x3a8c904f	0.001072416
127	0x3c99b506	0.018763077
128	0xba3cb36a	-0.00071983656
129	0x3cc57d6d	0.02410766
130	0x3ca714b6	0.020395618
131	0xbca65b5f	-0.020307241
132	0x3c42e8db	0.011896337
133	0xbd0496cb	-0.03237037
134	0x3c46d5d5	0.0121359425
135	0xbd13e9ec	-0.036111757
136	0xbcab18bc	-0.020885818
137	0x3cc86756	0.024463337
138	0x3ce9effd	0.028556818
139	0xbd08d69f	-0.033407804
140	0xbcd1a4d1	-0.025591286
141	0x3a7253e4	0.0009244068
142	0xbcf5a745	-0.029986987
143	0xbca63473	-0.020288682
144	0xbcd2dfa0	-0.025741398
145	0x3cbfa780	0.0233953
146	0xbca7e031	-0.020492645
147	0xbbf09128	-0.0073415227
148	0xbcb875b8	-0.02251707
149	0xbcb001ed	-0.021485293
150	0xbc2100d0	-0.009826854
151	0x3ceeb444	0.029138692
152	0x3c792836	0.015207341
153	0x3cff4f8f	0.031165866
154	0x3bf98c5b	0.0076156086
155	0x3d01f23a	0.031725146
156	0x3c4f07ff	0.012636184
157	0x3c271894	0.010198731
158	0x3d079131	0.03309745
159	0x3ce5625e	0.028001007
160	0xbd003f8b	-0.0313106
161	0xbc73089a	-0.014833594
162	0xbca08829	-0.019596176
163	0xbc1fbaf8	-0.009749167
164	0xbc527bf2	-0.012846934
165	0xbd213447	-0.039356496
166	0x3c51ddc0	0.012809217
167	0x3ccffd10	0.025389224
168	0xbd1e01ce	-0.03857594
169	0x3c65cbb4	0.014025617
170	0xbc1d006a	-0.009582618
171	0x3d137acd	0.036005784
172	0x3bb21a11	0.0054352363
173	0x3cdf29e3	0.027241653
174	0xbcad9af7	-0.021192057
175	0xbc1ddc42	-0.009635033
176	0x3b4c54aa	0.0031178393
177	0xbd2ab757	-0.041678753
178	0xbcfe2ddb	-0.031027725
179	0xbc8bf59f	-0.017084895
180	0xbd2e970e	-0.042624526
181	0xbccca429	-0.024980621
182	0xbc2365a1	-0.009972961
183	0xbd01f45a	-0.031727172
184	0xbc03f0ca	-0.008053014
185	0x3c9ff44d	0.019525671
186	0xbd0f14ec	-0.034932062
187	0x3c0a5b9e	0.008444695
188	0xb88382c4	-6.270924e-05
189	0xbc1127e0	-0.008859605
190	0x3d21632d	0.039401222
191	0xbcc6bce5	-0.024259994
192	0x3c078418	0.00827124
193	0x3c4bb2f0	0.012432799
194	0x3c8b43f0	0.017000169
195	0xbd303e2b	-0.043028038
196	0x3c028096	0.007965228
197	0xba58b24b	-0.0008266314
198	0x3c284328	0.010269918
199	0xbd081250	-0.03322059
200	0xbc88cacd	-0.016698265
201	0x3d3070fa	0.043076493
202	0x3c99c0fd	0.018768782
203	0x3d066dc1	0.032819513
204	0xbc9e38ec	-0.019314252
205	0xbd321c1f	-0.04348385
206	0xbd07ae8a	-0.033125438
207	0x3cac5a67	0.021039201
208	0xbc99e97e	-0.018788096
209	0xbc0c63d4	-0.008568723
210	0xbbc5a39c	-0.0060314666
211	0x3d2748d0	0.040840924
212	0x3d1a9ace	0.03774529
213	0x3ccefa49	0.02526583
214	0x3c488ef5	0.012241115
215	0x3d14d3cd	0.0363348
216	0xbc3cd369	-0.0115250135
217	0xbc5f639d	-0.0136345895
218	0x3cea96b9	0.028636323
219	0xbccd4482	-0.025057081
220	0x3ccd80d8	0.025085852
221	0xbd234024	-0.03985609
222	0xbc29ae2a	-0.010356465
223	0xbc58108b	-0.013187538
224	0x39fa874b	0.00047784517
225	0xbcf500e1	-0.029907646
226	0x3d1370f1	0.03599638
227	0x3d140ff9	0.036148045
228	0xbd2113aa	-0.039325394
229	0x3d013420	0.03154385
230	0xbc299297	-0.010349891
231	0xbca1e0f1	-0.01976058
232	0xbbd3aab2	-0.0064595575
233	0xbd1aa3a6	-0.037753724
234	0xbccfcd8b	-0.025366565
235	0xbabef4f1	-0.0014568848
236	0x3afd347a	0.0019318007
237	0xbc61e3a8	-0.013787188
238	0xbb551bac	-0.0032517714
239	0xbd1d8630	-0.03845805
240	0xbc675ba9	-0.014120975
241	0x3d31b19d	0.043382276
242	0xbc61fbc9	-0.01379294
243	0x3c9747fc	0.018466942
244	0xbc2c91bc	-0.010532793
245	0xbc154bf6	-0.009112349
246	0xbd0fbadc	-0.035090312
247	0xbd34941c	-0.04408656
248	0x3c9f065e	0.019412216
249	0xbc84a687	-0.016192688
250	0x3c8f5f89	0.01750161
251	0x3a9f8d23	0.0012172799
252	0x3d264e5a	0.040602066
253	0xbcaaff75	-0.020873765
254	0x3d2e0f2f	0.04249495
255	0xbc9f06b9	-0.019412385

fc2.bias f4 [256]
0	0xbc42d328	-0.011891164
1	0x3d12c175	0.035829026
2	0x3d600383	0.05469085
3	0x3c91da3d	0.01780426
4	0x3e342031	0.17590405
5	0xbc74e31f	-0.014946728
6	0x3d142a13	0.036172938
7	0xbd8f267a	-0.06989761
8	0x3c2300ee	0.009948952
9	0x3d830373	0.06397142
10	0x3c57c52e	0.01316957
11	0xbd5dfb57	-0.054194774
12	0x3d0f1a49	0.034937177
13	0x3b8af82d	0.0042410106
14	0x3bc3f2e4	0.0059798826
15	0x3d25afb9	0.040450785
16	0x3de93dab	0.11388715
17	0xbc8aa112	-0.016922507
18	0x3cec607c	0.028854601
19	0xbc855d62	-0.01627988
20	0x3de4a569	0.11164362
21	0x3cb2372a	0.02175482
22	0x3a86828e	0.0010262297
23	0x3da1b414	0.07895675
24	0x3b527cfe	0.0032117958
25	0xbc3c6f19	-0.011501097
26	0x3cb90485	0.022585163
27	0xbd5552ec	-0.052081034
28	0x3c582adc	0.013193812
29	0xba53ca1a	-0.0008079127
30	0x3dc4bec4	0.09606698
31	0xbd4416ab	-0.04787318
32	0x3d8db287	0.06918817
33	0xbcf855c5	-0.030314336
34	0xbca41541	-0.020029666
35	0xba29751d	-0.00064642896
36	0x3c32b9c3	0.010908547
37	0x3b8a7674	0.0042255465
38	0x3d2236a7	0.0396029
39	0xbc06bd9a	-0.0082239155
40	0xbda0d9a5	-0.078540124
41	0xbc0a704d	-0.008449626
42	0x3c2dfcaf	0.0106193265
43	0xbc8c4954	-0.01712481
44	0x3e292a75	0.16520102
45	0xbde3b6f5	-0.11118881
46	0x3d86c292	0.0658008
47	0xbd8021a0	-0.062564135
48	0x3d729b42	0.059230097
49	0x3c618663	0.01376495
50	0xbdabd57e	-0.0839033
51	0x3cb676c7	0.022273434
52	0xbc874ec5	-0.016517052
53	0x3c00dd8f	0.007865324
54	0x3ceac7b2	0.028659675
55	0xbe639b92	-0.22227314
56	0xbb9a5a26	-0.0047104536
57	0x3da5b080	0.08090305
58	0xbd8fa9f3	-0.07014837
59	0xbd2e48b7	-0.042549815
60	0xbd0635b0	-0.032766044
61	0xbd3f6486	-0.046726726
62	0xbcf1455d	-0.02945202
63	0xbd827e30	-0.063717246
64	0xbd638aab	-0.055552166
65	0xbd271599	-0.04079208
66	0x3d406b77	0.046977486
67	0x3cc74bcf	0.02432814
68	0xbc595c0c	-0.013266575
69	0xbc9529c4	-0.018208392
70	0xbe2cd26e	-0.16877148
71	0xbdd1de7c	-0.10247514
72	0x3d583672	0.052786298
73	0x3e2bc045	0.16772564
74	0xbd0fbdae	-0.035093002
75	0xbd07e451	-0.033176724
76	0x3deda6df	0.11604094
77	0xbde1a1e4	-0.11017206
78	0x3c220c1d	0.009890583
79	0xba0e89a7	-0.0005437382
80	0x3d151bb1	0.03640336
81	0x3e00e00f	0.12585472
82	0xbd441764	-0.04787387
83	0x3cb64b6b	0.022252759
84	0xbd34c6e5	-0.044134993
85	0x3d0736c5	0.033011217
86	0x3c4bc09b	0.012436057
87	0xb9660a7d	-0.00021938416
88	0xbc5b5c53	-0.013388711
89	0x3d4e027c	0.050295338
90	0x3ca5cf1e	0.020240363
91	0x3d3a7dcf	0.045530137
92	0x3ceb56f9	0.028727995
93	0xbd553c95	-0.05205973
94	0x3cf87edb	0.030333927
95	0x3cb32886	0.021869909
96	0x3cb69c5b	0.022291353
97	0x3daef9e5	0.08543757
98	0xbcb6a3b8	-0.022294864
99	0x3d209bb0	0.039210975
100	0xbd9764b1	-0.07392252
101	0xbd18cb6c	-0.037303373
102	0xbd9acd30	-0.07558668
103	0x3c7f194e	0.015569998
104	0xbc949bf8	-0.018140778
105	0xbc7bd50e	-0.01537062
106	0x3d81ea62	0.06343533
107	0xbc0be30f	-0.008538022
108	0x3d289198	0.041154474
109	0xbd28d9ef	-0.041223463
110	0xbcbcce8e	-0.023047712
111	0xbd39d5d5	-0.04536994
112	0x3d88c0e9	0.0667742
113	0x3d20c9a1	0.03925479
114	0xbd31ed76	-0.04343935
115	0x3d448753	0.047980618
116	0xbd0e068d	-0.034674216
117	0x3dd28f16	0.10281198
118	0x3cbe11c3	0.023201829
119	0x3e03c0a7	0.1286646
120	0xbcab2608	-0.020892158
121	0xbc7004ee	-0.014649613
122	0xbb26538c	-0.0025379388
123	0xbc9e8c4b	-0.019354006
124	0xbd5b53d8	-0.053546757
125	0x3c2f1d12	0.010688083
126	0x3da18c6b	0.07888111
127	0x3d085fb2	0.033294387
128	0xbcda42d8	-0.026643202
129	0x3a50f0e5	0.00079704664
130	0x3e113646	0.1418086
131	0xbd226186	-0.039643787
132	0x3d8e3bba	0.06944986
133	0xbcdea023	-0.027175969
134	0x3e085b4d	0.13316078
135	0x3de3ad89	0.111170836
136	0x3da2c046	0.079468295
137	0xbd12564f	-0.03572684
138	0x3da4bc22	0.08043696
139	0xbd654976	-0.05597826
140	0xbca72ae1	-0.020406188
141	0xbc9d2772	-0.019183848
142	0x3d1c0c84	0.038097873
143	0xbcae8e52	-0.021308098
144	0x3bc62958	0.006047409
145	0xbca653b5	-0.020303586
146	0x3ce95539	0.02848302
147	0xbd6584d3	-0.056034874
148	0x3ca1e43f	0.019762157
149	0x3dc12c89	0.094323225
150	0xbc232c64	-0.009959314
151	0x3c4d328e	0.01252426
152	0x3c45ab98	0.012064837
153	0xbd0ef1b9	-0.034898493
154	0xbdb53742	-0.0884843
155	0xbd369c67	-0.04458275
156	0xbd29d8b4	-0.04146643
157	0x3da2d9c8	0.07951695
158	0x3cc9d0e4	0.02463574
159	0xbd223101	-0.039597515
160	0xbb688378	-0.0035478752
161	0xbcfdacce	-0.030966189
162	0xbc84b809	-0.016201036
163	0x3ca7bb40	0.02047503
164	0xbc9b1f5d	-0.018935854
165	0xbc1d4e82	-0.009601237
166	0xbd463d53	-0.048398327
167	0xbd510ee4	-0.05103959
168	0x3cd16892	0.025562558
169	0xbb27a9c7	-0.0025583373
170	0x3c3f5288	0.011677392
171	0x3dfd33ee	0.123634204
172	0x3c1d6e0b	0.009608756
173	0xba608b6e	-0.00085656985
174	0x3de3c517	0.11121576
175	0xbd2d42cc	-0.04230003
176	0x3ba8f90e	0.0051566428
177	0xbd48df10	-0.049040854
178	0xbcf581de	-0.029969152
179	0xbcb4a8cc	-0.022053145
180	0xb9645440	-0.0002177516
181	0xbc585531	-0.013203905
182	0xbd47b5aa	-0.048757233
183	0xbd62e484	-0.05539371
184	0xbbaed055	-0.0053348937
185	0x3d374531	0.04474372
186	0x39d85b23	0.00041266633
187	0x3ac7d433	0.0015245735
188	0x3cc0054d	0.023440028
189	0x3e0f6129	0.14001907
190	0x3b31ac46	0.002711074
191	0x3db45a78	0.08806318
192	0xbdabf39a	-0.08396073
193	0xbc03e27b	-0.008049603
194	0xbb03e095	-0.0020122875
195	0x3ce0f97f	0.027462719
196	0xbc2e9a4c	-0.010656904
197	0x3d11313f	0.035447355
198	0xbd3417d0	-0.043968022
199	0x3d7873aa	0.06065718
200	0xbd9e4860	-0.07728648
201	0x3cfeac83	0.03108812
202	0xbc9397f7	-0.018016798
203	0xbd7a3a85	-0.061090965
204	0x3cf80a0e	0.030278232
205	0x3e26213e	0.16223618
206	0x3b69dd85	0.0035685014
207	0xbc3dbb66	-0.011580324
208	0xbd8126da	-0.063062385
209	0x3d2a47bd	0.04157232
210	0xbd1192ab	-0.035540264
211	0x3dd34fde	0.10317968
212	0x3b6f2a48	0.0036493707
213	0xbce2bdc7	-0.027678384
214	0x3aff74ce	0.0019489767
215	0x3c04b6e2	0.008100243
216	0xbd1c5064	-0.038162604
217	0xbb89b7cd	-0.004202819
218	0x3e1fafa0	0.1559434
219	0x3d0d772e	0.034537487
220	0xbcc1d497	-0.023660941
221	0x3bf968c2	0.007611365
222	0x3ddc9433	0.10770454
223	0x3d0deda8	0.034650475
224	0xbd244570	-0.040105283
225	0xbd340dff	-0.04395866
226	0x3d7d70b6	0.061875068
227	0x3d495b89	0.04915956
228	0xbd882184	-0.066470176
229	0x3d3e264a	0.046423234
230	0x3ddabe58	0.106808364
231	0x3d68a545	0.05679824
232	0xbd0961c4	-0.033540502
233	0x3dd9e5cc	0.106395334
234	0xbb6476c7	-0.0034860836
235	0xbcc8eb31	-0.02452621
236	0x3dc7b045	0.097504176
237	0xbdd7769f	-0.10520672
238	0x3e025f16	0.12731585
239	0x3d86954a	0.065714434
240	0xbcd5fa17	-0.026120229
241	0xbcd10e3b	-0.02551948
242	0xbcf2bb3e	-0.0296303
243	0xbb63cccc	-0.003475952
244	0x3da23d70	0.079218745
245	0x3e013f61	0.12621833
246	0x3c70bc00	0.01469326
247	0x3d31955e	0.04335534
248	0xbcb2d0c4	-0.021828063
249	0x3c278d37	0.010226539
250	0x3ced1cb0	0.028944343
251	0xbd700700	-0.058600426
252	0x3caa925c	0.020821743
253	0xbb0f2489	-0.0021841845
254	0xbce54ed8	-0.027991697
255	0xbd6f113e	-0.058366053

fc3.weight f4 [128, 256]
0	0x3d46113a	0.048356272
1	0x3d433ff1	0.0476684
2	0x3d8e876c	0.069594234
3	0xbbfc1969	-0.007693459
4	0xbd89272d	-0.06696925
5	0xbcc03f1b	-0.023467591
6	0xbbc84e1c	-0.006112827
7	0xbec5a14a	-0.38599616
8	0x3d5821da	0.05276666
9	0x3e298cff	0.16557692
10	0xbd0f2117	-0.034943666
11	0xbe8d6616	-0.27616948
12	0x3d450672	0.04810185
13	0xbe1d1995	-0.1534179
14	0xbe55a093	-0.20862035
15	0x3dd5372b	0.10410913
16	0x3d9d25ba	0.076732114
17	0x3d78b3ca	0.060718335
18	0xbb7e2c8c	-0.0038783876
19	0x3d25ddfe	0.04049491
20	0xbc34772e	-0.011014743
21	0x3e309675	0.17244895
22	0xbd68f69d	-0.056875814
23	0xbea706f0	-0.3262248
24	0x3e9d1be5	0.30685344
25	0x3b3085de	0.002693526
26	0x3e7584f9	0.23976506
27	0x3adb4c40	0.0016731098
28	0x3de70f56	0.11282222
29	0x3d67c9c0	0.05658889
30	0x3dffc258	0.1248824
31	0xbd7c049c	-0.061527833
32	0xbdec9b7f	-0.11553096
33	0x3c0559e9	0.008139112
34	0xbd38a823	-0.045082223
35	0x3e335409	0.17512526
36	0x3e2f22f7	0.17103182
37	0xbe211fdb	-0.15734808
38	0x3e3f4172	0.18677309
39	0xbdc60271	-0.096684344
40	0x3d6d4f4f	0.057936963
41	0xbd117418	-0.035511106
42	0xbce891bb	-0.028389802
43	0xbdeed57e	-0.11661814
44	0xbd77e105	-0.06051733
45	0x3e481fe1	0.19543411
46	0x3ed94526	0.4243557
47	0x3dca210a	0.09869583
48	0x3de6886d	0.1125649
49	0x39ca9baa	0.0003864442
50	0x3dda8e96	0.10671727
51	0x3ec05a2e	0.37568802
52	0x3dedd8d2	0.11613621
53	0x3c9b6777	0.018970234
54	0xbf15642b	-0.5835597
55	0x3f402394	0.7505429
56	0x3d1e9f55	0.03872617
57	0x3c922ba3	0.017843073
58	0x3e14da47	0.14536391
59	0x3d87cc25	0.06630734
60	0xbd506ffc	-0.050888047
61	0x3cce4f79	0.02518438
62	0x3e3d9f36	0.18517765
63	0x3f130129	0.57423645
64	0x3cb5ea2a	0.022206385
65	0x3e80157b	0.25016388
66	0xbd585b83	-0.052821647
67	0xbe170de1	-0.14751388
68	0xbec01caf	-0.37521884
69	0xbd7d3cd9	-0.061825607
70	0xbec58b60	-0.38582897
71	0x3da31f28	0.07964927
72	0x3c9d9d6d	0.019240106
73	0x3d8938a1	0.06700254
74	0xbd49ed7e	-0.049298756
75	0xbd970199	-0.073733516
76	0x3dc76986	0.09736924
77	0x3e9203dd	0.28518572
78	0x3d5de6ad	0.054175068
79	0xbd4536dc	-0.04814802
80	0x3e7e3cdd	0.24827905
81	0x3ba0874f	0.0048989425
82	0x3ed7bdf2	0.42137104
83	0x3f0c9a70	0.5492315
84	0xbbecd412	-0.007227429
85	0x3d8f18c5	0.06987146
86	0xbca4c399	-0.0201128
87	0xbe0cbfbe	-0.13745019
88	0x3ccd1431	0.025034042
89	0x3d8ef66d	0.06980596
90	0x3d2f413a	0.042786814
91	0x3eb6880c	0.3565067
92	0x3c4e216a	0.012581209
93	0x3d6ce703	0.057837497
94	0xbe06ff68	-0.13183367
95	0x3c7c647c	0.015404817
96	0xbca55ca2	-0.020185772
97	0xbc3b5c25	-0.011435543
98	0x3d96eb9c	0.07369158
99	0xbe6b8159	-0.22998561
100	0x3e81def7	0.2536542
101	0xbdbb6f92	-0.0915214
102	0xbf3fb653	-0.7488758
103	0xbd0168b1	-0.031593982
104	0x3de8b7bb	0.11363169
105	0xbca1d827	-0.01975639
106	0x3da4fe07	0.08056264
107	0x3e5f993f	0.21835802
108	0xbd30e98e	-0.043191485
109	0xbdd82bb6	-0.10555212
110	0x3d4a2e9e	0.049360864
111	0x3e379b8e	0.17930433
112	0x3e1b6f79	0.15179242
113	0xbe125ac8	-0.14292443
114	0xbb95d770	-0.0045728013
115	0xbdca32ae	-0.09872948
116	0xbd3672c4	-0.044543043
117	0xbd6a4029	-0.057190094
118	0xbd5098d2	-0.05092699
119	0xbcf32aa9	-0.029683428
120	0xbcd44450	-0.02591148
121	0x3d679ceb	0.056546133
122	0x3ce02950	0.02736345
123	0xbeb69cae	-0.35666412
124	0x3e906dac	0.28208673
125	0xbd824e82	-0.063626304
126	0xbe2c160c	-0.16805285
127	0xbe8225cf	-0.2541947
128	0xbf1653b9	-0.587215
129	0xbb8d1464	-0.0043054093
130	0xbdc9740c	-0.09836587
131	0x3e5dccd5	0.21660168
132	0xbe2f9e0d	-0.17150135
133	0x3e89b59b	0.26896366
134	0xbd68f7d9	-0.05687699
135	0xbde047e9	-0.10951216
136	0xbdcec4e5	-0.100961484
137	0x3afaae1c	0.0019125375
138	0xbe41d9a2	-0.18930677
139	0x3e309f15	0.17248185
140	0xbd51e3d2	-0.051242657
141	0x3cf2bd3a	0.029631246
142	0x3e0b1f62	0.1358619
143	0x3c57d2e5	0.01317284
144	0x3d175e72	0.036955304
145	0xbd72c2eb	-0.05926792
146	0xbd0fd212	-0.035112448
147	0x3ee08892	0.43854195
148	0x3edc944b	0.4308189
149	0xbfb9e4d2	-1.4522955
150	0x3d2e65e8	0.042577654
151	0x3e1f78c7	0.15573417
152	0xbe40d0ad	-0.18829603
153	0xbd000445	-0.03125407
154	0x3c81e3b7	0.015855653
155	0xbd6b7236	-0.057481967
156	0xbc9df6a0	-0.019282639
157	0xbe008af1	-0.12553002
158	0x3ca70cba	0.02039181
159	0x3eb26261	0.34840682
160	0x3c827273	0.015923714
161	0x3d5bf896	0.053703867
162	0xbf19e0fa	-0.6010891
163	0xbd7eba3c	-0.062189326
164	0x3b05f080	0.0020437539
165	0x3d39cad0	0.045359433
166	0x3be2ced6	0.0069216294
167	0x3d2af7b5	0.041740138
168	0xbc306398	-0.0107659325
169	0xbecbc7f4	-0.3980099
170	0x3d64a854	0.055824593
171	0x3c84e963	0.016224569
172	0x3d3c0762	0.04590548
173	0xbd2c6680	-0.04208994
174	0xbe55336f	-0.20820402
175	0x3c6ce2f5	0.014458408
176	0xbe8cf4f2	-0.27530628
177	0x3d4f7c26	0.050655507
178	0xbd7548c8	-0.059883863
179	0x3e79d9a6	0.24399433
180	0x3d2e3d84	0.042539135
181	0x3d366d7b	0.044538002
182	0x3b9718c2	0.0046111057
183	0xbe1a3d3f	-0.15062426
184	0x3eb086cd	0.34477845
185	0xbd5e4589	-0.054265533
186	0xbeebc237	-0.46046612
187	0xbd888c9e	-0.066674456
188	0xbc9b22f0	-0.018937558
189	0xbda1b04d	-0.07894955
190	0xbd0f10e3	-0.034928214
191	0xbe26aef0	-0.16277671
192	0xbf0a8313	-0.54106253
193	0x3b215d47	0.0024622248
194	0x3c0b2981	0.008493782
195	0x3e861932	0.26191097
196	0x3cf48158	0.029846832
197	0x3e4f834c	0.2026493
198	0xbbe51d40	-0.0069920123
199	0x3d8c1991	0.06840814
200	0x3e59c734	0.21267396
201	0xbe9e0418	-0.30862498
202	0xbeaa58d5	-0.33270898
203	0xbd6199b3	-0.05507822
204	0xbf561e6d	-0.83640176
205	0x3db55d34	0.08855668
206	0xbe88e19e	-0.26734632
207	0xbe7a2cac	-0.24431103
208	0x3d6e02db	0.058108192
209	0xbb5b865a	-0.0033496828
210	0xbe88feef	-0.26757
211	0x3d5eb57e	0.054372303
212	0xbc09b670	-0.008405313
213	0xbd3f8e81	-0.04676676
214	0xbd0a4969	-0.033761416
215	0x3d2cb1dd	0.04216181
216	0x3cacf46b	0.021112641
217	0xbcc1a71a	-0.02363925
218	0x3dc96b90	0.09834969
219	0x3d9e186a	0.077195
220	0xbeeae819	-0.458802
221	0x3ee21e79	0.44163874
222	0xbe81ea91	-0.25374272
223	0xbd41d784	-0.047324672
224	0xbb5dbd21	-0.0033834653
225	0x3c497127	0.012295044
226	0x3e19d91d	0.15024228
227	0x3e493a78	0.1965121
228	0xbe427965	-0.18991621
229	0xbf281bee	-0.6566762
230	0x3e239671	0.15975358
231	0xbe842a95	-0.25813738
232	0xbc55c6e4	-0.0130479075
233	0xbf08776e	-0.53307235
234	0x39ff2100	0.00048661977
235	0x3e82c32a	0.25539523
236	0x3c8ba15e	0.01704472
237	0xbec4be0a	-0.38426238
238	0xbe40fc75	-0.18846305
239	0xbef38028	-0.47558713
240	0xbcc48f50	-0.023994118
241	0xbe671995	-0.22568353
242	0xbef50492	-0.4785505
243	0x3da720ed	0.08160577
244	0x3ea92902	0.330391
245	0x3c9a7c54	0.018858112
246	0x3d2ba01f	0.04190075
247	0xbd9a9f87	-0.07549959
248	0x3e920569	0.28519753
249	0x3e0fc8e2	0.14041474
250	0xbec444c7	-0.38333723
251	0xbd06ae0d	-0.03288083
252	0x3ee432de	0.4457006
253	0x3d0283d5	0.031864006
254	0x3c6d1aa0	0.01447168
255	0xbba63e9c	-0.0050733816

fc3.bias f4 [128]
0	0xbe0288f3	-0.12747554
1	0xbcdaf614	-0.026728667
2	0x3d02bf6b	0.03192083
3	0xbc84cd7a	-0.01621126
4	0x3dacff0f	0.08447086
5	0xbdbb89f0	-0.09157169
6	0x3d1bf6e0	0.038077235
7	0x3de911f5	0.11380378
8	0xbcf7e1c0	-0.030259013
9	0xbd48aeb2	-0.048994727
10	0x3d5747a4	0.052558556
11	0xbcae727e	-0.021294829
12	0x3cfec37b	0.031099072
13	0x3dabe334	0.08392945
14	0x3d42677c	0.04746197
15	0x3d8915c3	0.06693604
16	0xbd41b3a3	-0.047290456
17	0x3ca42cd5	0.020040909
18	0xbb5a58b3	-0.003331703
19	0x3e23dae7	0.16001473
20	0x3da10489	0.07862193
21	0xbcc57f78	-0.024108633
22	0xbd9085d9	-0.070567794
23	0x3d0d049e	0.03442823
24	0x3cf84ec3	0.030310994
25	0xbd3b73bb	-0.045764666
26	0x3ce282b1	0.02765021
27	0x3b5111f0	0.003190156
28	0x3e3e5518	0.18587148
29	0xbd7609ed	-0.06006806
30	0xbcc3c788	-0.023898855
31	0xbd3cdb19	-0.046107385
32	0x3db529f7	0.08845895
33	0x3d376d9a	0.04478226
34	0xbc0aa0ab	-0.008461158
35	0xbd299e1b	-0.041410547
36	0xbd42a494	-0.047520235
37	0xbbdbf8ff	-0.0067130323
38	0x3d23dbec	0.040004656
39	0xbcc8859a	-0.024477769
40	0x3daffff5	0.08593742
41	0xbd2a6194	-0.041596964
42	0x3d0ea897	0.03482875
43	0xbd8328d4	-0.06404272
44	0xbba0a448	-0.0049023964
45	0xbcd36a28	-0.025807455
46	0x3d9b8eb8	0.07595581
47	0x3c0c6d2a	0.008570949
48	0xbc9d3fdb	-0.019195488
49	0x3e3b3a6a	0.18284002
50	0x3d6eaf33	0.05827255
51	0xbd4c2fed	-0.049850393
52	0xbc84f79f	-0.016231356
53	0xbd7de5c7	-0.06198671
54	0x3c02663d	0.007958946
55	0xbc5fefef	-0.0136680445
56	0x3ce176df	0.027522502
57	0x3cf70873	0.030155396
58	0xbe9b2487	-0.30301306
59	0xbcf3b5aa	-0.02974971
60	0xbd223241	-0.039598707
61	0xbda9e0ac	-0.08294806
62	0xbc8ab762	-0.016933147
63	0xbdd36713	-0.10322394
64	0xbd513366	-0.051074408
65	0xbd064538	-0.032780856
66	0x3e11c53f	0.142354
67	0x3d78c18c	0.060731456
68	0xbd05f5bc	-0.032705054
69	0x3d478f87	0.048720863
70	0xbd556cd5	-0.052105743
71	0x3d66fe1c	0.05639468
72	0x3dbd49be	0.09242581
73	0xbd9ea197	-0.077456646
74	0xbc74621d	-0.01491597
75	0xbc88e6a4	-0.01671154
76	0xbe01a5d8	-0.1266092
77	0x3d7c5338	0.0616028
78	0xbd125147	-0.035722043
79	0x3e8c9213	0.27455196
80	0x3e11b551	0.14229323
81	0x3e0ff025	0.14056452
82	0x3e058cdd	0.13042016
83	0x3d1a66ec	0.03769581
84	0x3c8199ea	0.015820462
85	0x3e9b76b5	0.30364004
86	0xbd76a0d1	-0.06021196
87	0xbe01d3da	-0.12678471
88	0xbc0c1603	-0.00855017
89	0xbde887c3	-0.113540195
90	0xbd24b1a0	-0.04020846
91	0xbd60b8b9	-0.054863665
92	0x3da391cc	0.07986793
93	0x3d15580a	0.036460914
94	0x3d8ba357	0.06818264
95	0x3e8943b1	0.26809457
96	0x3c8bff13	0.017089402
97	0xbcfe730c	-0.031060718
98	0x3af4260c	0.0018627062
99	0xbd291785	-0.041282196
100	0xbe53d4a8	-0.2068659
101	0x3d44b37a	0.048022725
102	0x3c1269c9	0.008936354
103	0xbc35b3db	-0.011090244
104	0x3ca32f95	0.01992015
105	0x3c833d46	0.016020428
106	0x3d468a25	0.04847159
107	0x3d134311	0.03595263
108	0xbd54a5ba	-0.05191586
109	0xbda5a183	-0.080874465
110	0xbd1227e4	-0.035682574
111	0x3cc7a305	0.024369726
112	0x3e1e48c6	0.15457448
113	0x3be0b685	0.0068576955
114	0xbd64b593	-0.055837225
115	0xbcca0d11	-0.024664434
116	0x3ca5e03e	0.020248529
117	0x3e6c9255	0.23102696
118	0x3d2cf491	0.042225424
119	0xbd9c28e0	-0.07624984
120	0x3b9b7463	0.004744099
121	0x3d24c5be	0.040227644
122	0x3db7d3d4	0.0897595
123	0x3e03f5ab	0.12886684
124	0xbd9cc061	-0.07653881
125	0x3c7874c9	0.0151645625
126	0xbc2e5f42	-0.010642828
127	0xbd01ffe8	-0.03173819

fc4.weight f4 [32, 128]
0	0xbc9ec524	-0.019381113
1	0xbc83efcf	-0.01610556
2	0xbd3fd34e	-0.046832375
3	0xbacba450	-0.001553664
4	0xbcc11ccc	-0.023573302
5	0xbd858089	-0.06518657
6	0xbd1d6fee	-0.038436823
7	0xbd3ccbc5	-0.046092767
8	0x3d3f5ffb	0.046722393
9	0xbce9dc65	-0.028547475
10	0xbd5e8d7d	-0.054334152
11	0xbd79a15e	-0.060944907
12	0x3c6f6f19	0.01461389
13	0x3d639188	0.05555871
14	0xbda8964a	-0.0823179
15	0x3acb6b5d	0.0015519668
16	0x3d520bb6	0.0512807
17	0xbdb54b4f	-0.088522546
18	0x3a240d31	0.0006258069
19	0xbc342c1f	-0.010996847
20	0x3d2cfe01	0.042234425
21	0x3d960d0b	0.073267065
22	0x3d80c30c	0.06287202
23	0xbc8bde11	-0.017073663
24	0xbc2ccd7b	-0.010547037
25	0xbd74357a	-0.05962131
26	0x3d91faf6	0.07127945
27	0x3d83e645	0.06440405
28	0xbd3939d8	-0.04522118
29	0xbdae1d02	-0.085016266
30	0xbd6a22dd	-0.057162154
31	0xbd262f97	-0.04057273
32	0x3b74171e	0.0037245224
33	0xbd9d7f55	-0.07690302
34	0x3c7a579b	0.015279676
35	0x3d4099d9	0.04702172
36	0xbd917a36	-0.07103388
37	0xbbbc2d08	-0.005742673
38	0xbd6323f8	-0.055454224
39	0x3d85c843	0.065323375
40	0x3d2db127	0.042405274
41	0xbdb75c49	-0.08953149
42	0xbab66934	-0.0013916851
43	0xbda711ab	-0.08157667
44	0x3d83f033	0.06442299
45	0x3c7f5fff	0.015586852
46	0xbd2d3672	-0.04228825
47	0xbd6a99ea	-0.05727569
48	0x3cd967f0	0.02653882
49	0xbd8420cd	-0.06451569
50	0xbd59f0e0	-0.053208232
51	0xb9911a64	-0.00027676218
52	0x3d9080c0	0.07055807
53	0x3d3ea8f9	0.046547864
54	0x3d1cbf3a	0.038268305
55	0xbd559de4	-0.05215253
56	0xbd0ad2dd	-0.0338925
57	0xbd10a72a	-0.03531567
58	0xbdaf63c6	-0.08563952
59	0x3d1af4bb	0.03783105
60	0x3c854921	0.016270222
61	0x3cf383d6	0.02972595
62	0x3c78f3c8	0.015194841
63	0x3c9f6c86	0.019460928
64	0x3d1d14d2	0.038349934
65	0x3d002175	0.031281907
66	0xbbe3a74c	-0.0069474336
67	0x3ccf952e	0.02533969
68	0x3d644db5	0.05573817
69	0xbcc0e617	-0.023547215
70	0x3d58db1e	0.05294334
71	0xbd564549	-0.05231217
72	0xbd460aa4	-0.04834999
73	0x3d97f244	0.074192554
74	0x3d63a985	0.05558159
75	0x3c9aa113	0.018875634
76	0xbd8220ff	-0.0635395
77	0x3d5df518	0.054188818
78	0x3d9d5684	0.07682517
79	0xbd91863d	-0.07105682
80	0x3d2e7cb4	0.042599395
81	0x3b9d8ab9	0.004807797
82	0x3d08cdc7	0.03339937
83	0x3ce3e009	0.02781679
84	0xbd2bc2f8	-0.041933984
85	0x3d82859a	0.06373139
86	0x3da20e40	0.07912874
87	0xbc6a2ce9	-0.014292934
88	0xbd62276b	-0.055213373
89	0xbd9cf556	-0.076639816
90	0xbd393a1b	-0.04522143
91	0xbcb623ee	-0.02223393
92	0xbc8cdef6	-0.01719616
93	0xbb9dd23a	-0.0048163207
94	0x3d3f63dd	0.046726096
95	0x3d8d825c	0.0690963
96	0x3d220b42	0.039561518
97	0xbd06f220	-0.032945752
98	0x3d0f7e57	0.035032596
99	0xbd9a56eb	-0.075361095
100	0x3d3dad17	0.04630765
101	0xbc87f925	-0.016598294
102	0xbd4bb62a	-0.049734272
103	0xbd657d17	-0.056027498
104	0xbd4f4caa	-0.050610222
105	0x39e67476	0.0004395579
106	0xbde58e18	-0.11208743
107	0x3da436f0	0.08018291
108	0x3d06c398	0.032901376
109	0xbd979837	-0.074020796
110	0xbd181b27	-0.03713527
111	0xbc00a171	-0.007850991
112	0xbdcebcf4	-0.10094634
113	0x3d20d3b6	0.039264403
114	0xbd23cd5e	-0.039990775
115	0xbdb8dbf9	-0.090263315
116	0x3daa6629	0.08320267
117	0xbd8de745	-0.06928877
118	0x3da5a272	0.080876246
119	0x3ce52824	0.027973242
120	0x3cbb67c7	0.022876633
121	0xbbdaba1b	-0.0066750175
122	0xbdb3d2de	-0.08780454
123	0xbdc1496e	-0.09437834
124	0xbd63dd92	-0.055631228
125	0x3d97cf6b	0.07412609
126	0x3cb6f802	0.022335056
127	0x3b9bea85	0.0047581815
128	0xbd8388cc	-0.06422576
129	0x3cde4e44	0.02713693
130	0x3d5a06e2	0.05322922
131	0xbd0e2aea	-0.034708895
132	0xbd140a6b	-0.036142748
133	0xbc05ada0	-0.008159071
134	0xbbb74a22	-0.005593554
135	0x3cf180d7	0.029480381
136	0x3cf48d8f	0.029852657
137	0xbd483f9d	-0.04888879
138	0x3d8b926d	0.06815038
139	0x3d5bfb27	0.053706314
140	0xbc10df27	-0.008842266
141	0xbda402eb	-0.08008369
142	0x3d08f499	0.03343639
143	0x3cfa4079	0.030548321
144	0xbb267a6a	-0.0025402554
145	0xbd79c79d	-0.06098138
146	0x3d0418cf	0.03225022
147	0x3be768a8	0.0070620365
148	0xbd7b522d	-0.061357666
149	0x3d37782d	0.044792343
150	0xbcbab0ba	-0.022789348
151	0xbda8d523	-0.082437776
152	0x3c3badf3	0.011455047
153	0x3cf1024a	0.029420037
154	0xbda7fccb	-0.08202513
155	0x3bfc6c11	0.007703312
156	0x3d4e24d2	0.050328083
157	0xbd96a9ae	-0.073565826
158	0x3d40f6f2	0.047110505
159	0x3c20378d	0.009778869
160	0xbdcea81a	-0.100906566
161	0x3c20e01f	0.00981906
162	0xbd89cd3c	-0.067285985
163	0xbc0fd32f	-0.008778377
164	0xbd8a3636	-0.06748621
165	0x3c5c1c66	0.013434505
166	0x3d58f64f	0.052969273
167	0xbd303e1f	-0.043027993
168	0xbd5f2060	-0.054474235
169	0xbd627197	-0.05528411
170	0xbcf1e4b1	-0.029527994
171	0x3bacbb5d	0.005271359
172	0x3d3df44f	0.04637557
173	0xbd0d04b8	-0.03442833
174	0x3d75a418	0.059970945
175	0xbc9d670e	-0.01921418
176	0x3c5affb4	0.013366628
177	0x3d8187da	0.0632474
178	0xbcbe9d91	-0.023268493
179	0x3d85f481	0.06540776
180	0xbcd65a04	-0.02616597
181	0x3c984b04	0.018590458
182	0x3d64e554	0.055882767
183	0x3b63a5bd	0.003473624
184	0x3da77d2e	0.08178173
185	0x3babd58d	0.005243963
186	0xbd0f4a5a	-0.034983017
187	0x3d0c6b03	0.03428174
188	0xbd1fb21b	-0.038988214
189	0xba10c4e1	-0.00055225013
190	0xbd864d2d	-0.06557689
191	0x3d805832	0.06266822
192	0x3b141586	0.0022595837
193	0x3c0e45be	0.00868362
194	0x3d466857	0.04843935
195	0x3cbf3589	0.023340957
196	0x3d911b04	0.07085231
197	0x3c8e5de1	0.01737875
198	0x3d1844da	0.037175037
199	0x3aef2198	0.0018244265
200	0x3d589217	0.052873697
201	0xba9244fe	-0.0011159477
202	0x3c768108	0.015045412
203	0xbc3c599f	-0.011495977
204	0xbcd1b4b5	-0.025598863
205	0xbd56255e	-0.05228173
206	0x3da17724	0.078840524
207	0x3d505bd7	0.050868835
208	0xbd81f95c	-0.0634639
209	0x3b123641	0.002231017
210	0xbbf91be1	-0.0076022004
211	0xbdb5e1ec	-0.08880982
212	0xbc9f8836	-0.01947413
213	0xbdc1fd12	-0.094720975
214	0xbd0e90e5	-0.03480615
215	0xbccad5e4	-0.024760194
216	0xbd162eee	-0.03666585
217	0xbc430470	-0.011902913
218	0x3d6b9e1e	0.05752384
219	0xbdae4c41	-0.08510638
220	0xbd9f7c76	-0.07787411
221	0xbd1005d7	-0.03516182
222	0xbdb8de94	-0.090268284
223	0x3d1b0ee7	0.03785601
224	0x3d84ef78	0.064909875
225	0xbd34de2c	-0.044157192
226	0xbc436dd2	-0.011928039
227	0x3d649911	0.055810038
228	0x3d99f731	0.07517851
229	0xb8cf6ce4	-9.8908116e-05
230	0xbd8290d0	-0.06375277
231	0xbdbb1a7b	-0.0913591
232	0x3da9c437	0.08289378
233	0xbaae7125	-0.0013308866
234	0x3cfa683a	0.030567277
235	0x3ca345a2	0.019930664
236	0xbaf88be7	-0.0018962593
237	0xbc8845cc	-0.016634844
238	0x3d51f097	0.051254835
239	0x3d8ce662	0.068798795
240	0xbdd30917	-0.10304468
241	0xbd64ece3	-0.055889975
242	0xbdd283d5	-0.10279051
243	0xbd4854c1	-0.048908953
244	0xbcbf3386	-0.023339998
245	0xbd5cfade	-0.053950183
246	0xbd6435ca	-0.05571536
247	0x3c478ee0	0.01218006
248	0x3d9e2408	0.07721716
249	0x3cae25a0	0.021258175
250	0xbd88469b	-0.06654092
251	0xbc2fc0e4	-0.010727141
252	0x3db30c7a	0.08742614
253	0xbda6df34	-0.08148041
254	0xbd71310e	-0.058884673
255	0x3c2a3374	0.010388244

fc4.bias f4 [32]
0	0x3d729455	0.05922349
1	0xbd149163	-0.036271464
2	0x3df27982	0.11839582
3	0xbdc90cf0	-0.09816921
4	0x3dc6c06f	0.097046725
5	0xbcfe5651	-0.031047018
6	0x3cdbbad7	0.02682249
7	0x3cba29b3	0.022724962
8	0x3d854455	0.06507174
9	0x3daad002	0.083404556
10	0xbdd88fa3	-0.105742715
11	0x3e00515e	0.12531039
12	0xbd3f4e12	-0.046705313
13	0x3dd27e17	0.10277956
14	0xbdae0a47	-0.08498054
15	0x3d32c06f	0.04364055
16	0xbcfd2836	-0.030902963
17	0xbcd8c62d	-0.026461685
18	0x3d5ab467	0.0533947
19	0x3d517a9c	0.05114232
20	0x3d1a6501	0.03769398
21	0x3e0152f5	0.12629302
22	0x3d93b206	0.0721169
23	0x3aebbade	0.0017984768
24	0xbc72bf67	-0.014816142
25	0xbd9625db	-0.07331439
26	0x3d4f1a9d	0.05056249
27	0x3d48eeef	0.04905599
28	0x3df09a29	0.11748154
29	0x3da4018c	0.080081075
30	0x3cd01e52	0.025405083
31	0x3e68f654	0.22750217

fc5.weight f4 [4, 32]
0	0x3e1642d0	0.14673924
1	0x3e0e0801	0.13870241
2	0x3ee60b07	0.44930288
3	0xbe4345e1	-0.19069625
4	0xbe8c1b1f	-0.27364442
5	0x3c9009e2	0.017582837
6	0xbe7780a8	-0.24170172
7	0xbe813ee1	-0.25243285
8	0x3d12bde5	0.03582563
9	0xbe6dccc5	-0.23222645
10	0xbde35163	-0.11099508
11	0x3e825539	0.25455645
12	0x3e21af1c	0.15789455
13	0x3ed7d61f	0.4215555
14	0xbdc917b7	-0.09818976
15	0xbe9a6e87	-0.3016245
16	0xbd8276d2	-0.063703194
17	0x3dd7b60d	0.1053277
18	0xbe53b0c7	-0.20672904
19	0x3e1d07b9	0.15334977
20	0x3ed21b65	0.41036525
21	0x3f041b2a	0.5160395
22	0xbd6ccc91	-0.057812277
23	0x3daaac2a	0.08333619
24	0xbeb06c9a	-0.34457856
25	0xbdc9b425	-0.09848813
26	0x3e692b2e	0.22770378
27	0x3da84c24	0.08217648
28	0x3f36c920	0.7140064
29	0x3e0f5a8d	0.13999386
30	0xbe37730e	-0.17914984
31	0x3f04f88c	0.5194175
32	0xbe0ebf03	-0.13940053
33	0xbdf707e5	-0.12062053
34	0x3f192f5e	0.598379
35	0xbe501f57	-0.20324455
36	0xbe9c0460	-0.30472088
37	0x3c81d1cc	0.01584711
38	0xbea04388	-0.31301522
39	0xbe8c4056	-0.27392834
40	0xbe189b3a	-0.14902964
41	0xbea07213	-0.31337032
42	0xbd0c1b73	-0.034205865
43	0xbc6d88ab	-0.014497916
44	0xbe2dfb44	-0.16990381
45	0x3ecb5047	0.39709684
46	0x3db2473c	0.08704993
47	0x3d458e43	0.048231374
48	0xbe16ca2f	-0.14725564
49	0x3dceabf4	0.10091391
50	0xbe99c613	-0.3003393
51	0x3db08541	0.08619166
52	0x3f0c7b81	0.5487595
53	0x3f02e13e	0.5112494
54	0xbe62aab4	-0.2213543
55	0x3d95ad49	0.07308442
56	0x3d2c47ff	0.04206085
57	0x3e115019	0.14190711
58	0x3dda410d	0.10656939
59	0xbe64f9a7	-0.2236086
60	0x3f367a28	0.71280146
61	0x3c9fbdfb	0.01949977
62	0xbd9a83ed	-0.07544694
63	0x3f15f783	0.585808
64	0x3d9a18df	0.07524275
65	0x3dc0cac7	0.09413677
66	0x3e942bf4	0.28939784
67	0xbe8e8ae8	-0.27840352
68	0x3d9b3d95	0.07580105
69	0x3d9a5197	0.07535093
70	0xbe9f284f	-0.3108544
71	0x3b9a8e70	0.004716687
72	0x3d60bc67	0.054867174
73	0xbe5f5ea2	-0.21813443
74	0x3dfd97ae	0.12382446
75	0x3ee16938	0.44025588
76	0xbdd217eb	-0.10258468
77	0x3ecd35a8	0.4008
78	0xbda32365	-0.07965735
79	0xbe87cf0c	-0.26525152
80	0xbe7743ad	-0.2414691
81	0x3e984cf7	0.2974622
82	0xbea63c60	-0.32467937
83	0xbdc15a28	-0.09441024
84	0x3f0bd8f8	0.54627943
85	0x3eee8dd4	0.4659258
86	0xbe88d667	-0.26726076
87	0x3d591393	0.052997183
88	0xbe9a1110	-0.30091143
89	0xbbb7d478	-0.005610045
90	0x3edf904b	0.43664774
91	0xbd507558	-0.050893158
92	0x3e8bc898	0.27301478
93	0xbd8795ff	-0.06620406
94	0xbe2fee04	-0.1718064
95	0x3ed1fd2d	0.4101347
96	0xbd896295	-0.06708256
97	0x3c3fa046	0.011695927
98	0x3ec70f98	0.38879085
99	0xbe09632c	-0.13416737
100	0xbe11cde4	-0.14238697
101	0xbd13812c	-0.03601186
102	0x3c78ec31	0.015193031
103	0xbe41796e	-0.18893978
104	0x3dbfaf6b	0.0935963
105	0xbe81c6bd	-0.25346938
106	0xbe0eb759	-0.13937129
107	0x3f1d5449	0.61456734
108	0x3e1cd6ef	0.15316366
109	0x3eb5a02d	0.35473767
110	0xbbd15e2f	-0.0063894014
111	0xbeaa4f27	-0.33263513
112	0xbeadcda7	-0.33945963
113	0x3d084628	0.03327003
114	0xbd03c8fd	-0.0321741
115	0xbd8e23c1	-0.06940413
116	0x3ed7e15c	0.42164123
117	0x3eb8111e	0.3595056
118	0xbe2c5395	-0.16828759
119	0x3e0aee34	0.1356743
120	0xbe00a7d1	-0.12564017
121	0x3debee48	0.11520058
122	0x3e8ba78f	0.27276275
123	0x3e142bfe	0.14469907
124	0x3f43b9bc	0.76455283
125	0xbe4123b1	-0.18861271
126	0xbe90ff6a	-0.28319865
127	0x3f121d8d	0.5707634

fc5.bias f4 [4]
0	0x3e009c2e	0.12559578
1	0x3e4e0922	0.20120671
2	0xbd404e3b	-0.046949606
3	0xbba42178	-0.0050088726
