data/model.pth (torch, 694959 bytes, 10 tensors)

fc1.weight f4 [512, 8]
0	0x3b36cb24	0.0027892077
1	0xbe2b50d3	-0.1673005
2	0xbdeabef1	-0.114622004
3	0x3d3cb94c	0.04607515
4	0x3e1349ad	0.14383574
5	0xbedd3a2e	-0.4320845
6	0xbda6dbb8	-0.08147377
7	0xbd806880	-0.06269932
8	0x3e79d70f	0.24398445
9	0x3dfdb781	0.12388516
10	0xbe9a1287	-0.3009226
11	0x3ed065a9	0.4070256
12	0xbe77b417	-0.24189793
13	0x3e8dab95	0.2766997
14	0xbe0e0305	-0.1386834
15	0xbe60d8c3	-0.21957688
16	0x3ee4c45f	0.4468107
17	0x3db3de4d	0.08782635
18	0xbeb476e0	-0.35246944
19	0xbd5575d0	-0.052114308
20	0x3ecd11e1	0.40052703
21	0xbdb5641f	-0.08856987
22	0xbd551bb8	-0.052028388
23	0x3e6893b4	0.22712594
24	0x3e1d7310	0.15375924
25	0xbdf4355c	-0.1192424
26	0xbdfaaaf9	-0.12239642
27	0xbde40e44	-0.111355335
28	0x3e93eb56	0.28890485
29	0x3e325c8c	0.17418116
30	0x3c1f615b	0.009727801
31	0x3df84ca0	0.1212399
32	0x3da52917	0.08064478
33	0xbcfabce2	-0.030607644
34	0xbf4c45aa	-0.797938
35	0xbeba8a6d	-0.36433735
36	0xbc959823	-0.018261021
37	0xbdede6cc	-0.11616287
38	0xbf1827e3	-0.5943586
39	0x3d1f8670	0.03894657
40	0x3d9f90fe	0.07791327
41	0xbe18119e	-0.1485047
42	0xbd664d03	-0.056225788
43	0xbe6d4790	-0.2317183
44	0x3c63df51	0.013908223
45	0xbd3793e8	-0.04481879
46	0x3e1a5ad6	0.15073714
47	0xbe8eb98f	-0.27875945
48	0xbe089771	-0.1333902
49	0x3e93f1c3	0.28895387
50	0x3ebea7cd	0.37237397
51	0x3ee46112	0.4460531
52	0xbe4007be	-0.18752953
53	0x3e526775	0.20547278
54	0x3d8c3177	0.06845372
55	0xbe1f78c7	-0.15573417
56	0xbf41dc07	-0.7572636
57	0x3e8af0e0	0.27136898
58	0x3e4a8123	0.19775824
59	0x3db1ddad	0.086848594
60	0x3d7d62f8	0.061861962
61	0xbe0c3629	-0.13692535
62	0x3eb531fc	0.35389698
63	0x3e6532a1	0.22382595
64	0x3d9e62a2	0.077336565
65	0xbd9f48ee	-0.07777582
66	0x3dd580b2	0.10424937
67	0xbd64dd66	-0.055875205
68	0x3ddc64e5	0.107614316
69	0x3f03ea76	0.51529634
70	0xbe8819bb	-0.2658213
71	0xbec7776b	-0.38958296
72	0x3e2f5fc3	0.17126374
73	0xbe894a70	-0.26814604
74	0xbeaa63c4	-0.3327924
75	0xbd4e281e	-0.050331227
76	0xbebd47d2	-0.36968857
77	0x3ea74507	0.3266985
78	0x3dcac989	0.09901721
79	0x3d14b6e3	0.036307227
80	0x3da51478	0.08060545
81	0xbe516701	-0.20449449
82	0x3e907898	0.28217006
83	0xbe87fab7	-0.26558468
84	0xbe12c656	-0.14333472
85	0x3e49156d	0.1963708
86	0xbe505d53	-0.203481
87	0x3e34375c	0.17599243
88	0x3d90452b	0.07044443
89	0x3e3af36b	0.18256919
90	0x3cf0d5d9	0.029398846
91	0x3f8d34cd	1.1031739
92	0x3e1c5a8a	0.15268913
93	0x3e867f27	0.26268885
94	0x3ea1bacc	0.31587827
95	0x3e9ef70f	0.31047866
96	0xbe48e2d5	-0.1961778
97	0xbf4bf30d	-0.7966774
98	0xbea58dd3	-0.32334766
99	0x3ec457a0	0.38348103
100	0xbe982b7a	-0.2972067
101	0x3e83df86	0.25756472
102	0xbe8e6e5b	-0.2781857
103	0xbd75ce97	-0.060011473
104	0x3eb35c49	0.35031345
105	0x3ea452de	0.32094473
106	0xbe866e98	-0.2625625
107	0x3e570a5a	0.21000043
108	0x3e49a37d	0.19691272
109	0x3c399323	0.011326584
110	0x3e6796f5	0.2261618
111	0x3ea5fe04	0.3242036
112	0xbf00914e	-0.5022172
113	0xbd8ee165	-0.06976584
114	0x3f09ac2f	0.53778356
115	0xbefa17ba	-0.48846227
116	0x3dd92a94	0.10603824
117	0xbe5680a4	-0.2094751
118	0xbe72d68d	-0.23714657
119	0x3e591b10	0.2120173
120	0x3cbf4e5e	0.023352798
121	0x3a950bd8	0.0011371328
122	0x3b957fcb	0.0045623532
123	0x3b8afcfc	0.004241584
124	0xbf8bf8b3	-1.0935272
125	0x3ca8b5f3	0.020594573
126	0x3e74d44a	0.23909107
127	0x3f77a0ac	0.9672954
128	0xbeb1774d	-0.34661332
129	0x3e42627a	0.18982878
130	0xbe98bf8f	-0.29833648
131	0x3ec3b9c6	0.3822767
132	0x3da0c5b0	0.07850206
133	0x3edf0c2b	0.4356397
134	0x3d85e5a0	0.06537938
135	0x3c519f9f	0.012794404
136	0xbe78900a	-0.24273697
137	0x3e161128	0.14654982
138	0xbf086816	-0.5328382
139	0xbe1dfe08	-0.15428936
140	0xbd90368d	-0.07041655
141	0x3d9fa9ce	0.077960595
142	0x3e13b9f1	0.144264
143	0xbe139f6c	-0.14416283
144	0x3e959cdf	0.29221246
145	0xbe1c75c5	-0.152793
146	0xbec21142	-0.37903792
147	0x3cb5ff6b	0.02221652
148	0xbd4b75cc	-0.049672887
149	0xbe88c5da	-0.2671345
150	0xbe90cd8b	-0.28281817
151	0x3eb86820	0.3601694
152	0x3ded5efe	0.11590384
153	0x3ac247d5	0.0014822433
154	0x3d65ad5f	0.056073543
155	0xbeaff391	-0.34365514
156	0x3e44590d	0.19174595
157	0xbe6176d5	-0.22017987
158	0xbe698984	-0.22806364
159	0xbe5f5c95	-0.21812661
160	0xbe85f0bd	-0.2616023
161	0xbd80da1b	-0.062916
162	0x3e46acb7	0.19401823
163	0xbeb24cc7	-0.348242
164	0xbeb6687e	-0.35626596
165	0xbe58b513	-0.21162824
166	0xbee4d797	-0.44695732
167	0x3ecf735f	0.4051771
168	0x3de0a8d7	0.10969704
169	0xbf079e9e	-0.52976406
170	0x3e6a7c78	0.22899044
171	0xbda37b3a	-0.07982488
172	0x3e12b101	0.14325334
173	0xbbe112ca	-0.006868695
174	0xbdfd3abb	-0.123647176
175	0xbe39e4f1	-0.1815374
176	0x3f0c7f97	0.54882187
177	0xbd493c6e	-0.049129896
178	0x3eb625f8	0.35575843
179	0xbd1b49dc	-0.037912235
180	0xbeababe9	-0.33529595
181	0x3d42fc18	0.047603697
182	0x3eee360c	0.4652561
183	0xbe0411d1	-0.12897421
184	0xbc65790c	-0.014005911
185	0xbe28b947	-0.16476928
186	0x3c7c3c37	0.015395216
187	0x3e884a01	0.2661896
188	0xbdf664a5	-0.12030915
189	0xbe806457	-0.25076553
190	0x3ebf3777	0.37347004
191	0xbede6ea6	-0.43443793
192	0xbcdba92b	-0.026814064
193	0xbea46c28	-0.32113767
194	0xbdacdc56	-0.08440463
195	0xbe060f97	-0.13091885
196	0xbd258144	-0.04040648
197	0x3dd1151b	0.10209104
198	0xbd9650f1	-0.07339657
199	0xbeeb486a	-0.45953685
200	0x3e44f6cf	0.19234775
201	0xbe5f7a62	-0.21824029
202	0x3d034afb	0.03205393
203	0xbd8457f4	-0.06462088
204	0xbe51ed63	-0.20500712
205	0xbb7c8ec2	-0.0038537239
206	0x3da97109	0.08273513
207	0x3e94cab9	0.29060915
208	0x3eafd467	0.34341738
209	0xbe8862a4	-0.26637757
210	0x3efeb81c	0.4974984
211	0x3dd55bd8	0.104179084
212	0x3edeb56a	0.43497783
213	0x3f076b46	0.5289806
214	0xbe5693e5	-0.20954855
215	0xbed9943d	-0.4249591
216	0x3d87c222	0.06628825
217	0x3e42f399	0.19038238
218	0x3f467688	0.77524614
219	0x3cd7ef10	0.026359111
220	0x3d5ef4f2	0.054432817
221	0x3cb43b6f	0.022000996
222	0xbec58777	-0.38579914
223	0xbc820c89	-0.015875118
224	0x3e143d5f	0.14476536
225	0x3e70b069	0.23504795
226	0x3dfa3b24	0.122183114
227	0xbe880363	-0.26565084
228	0xbea87cd5	-0.3290774
229	0x3dafc628	0.08582717
230	0x3e598187	0.21240817
231	0xbe8aab9c	-0.27084053
232	0x3edb8d03	0.4288102
233	0xbcb7a9d5	-0.02241985
234	0xbdc57321	-0.096411
235	0xbd3b0776	-0.045661412
236	0xbea037ee	-0.3129267
237	0x3d98ab0e	0.07454501
238	0x3dab8db0	0.08376634
239	0xbe6b7f52	-0.22997788
240	0xbf135120	-0.5754566
241	0xbf01a021	-0.5063496
242	0xbe7e55a3	-0.24837355
243	0xbdd00b35	-0.101583876
244	0xbe00cee9	-0.1257893
245	0xbe8ec735	-0.27886358
246	0x3e989982	0.29804617
247	0xbf26a796	-0.65099466
248	0xbef060d8	-0.46948886
249	0xbf1417ce	-0.57848823
250	0xbeab3e5f	-0.33446023
251	0xbe2f741b	-0.17134134
252	0x3d1504d6	0.036381565
253	0x3e0f57bf	0.13998316
254	0x3e36092b	0.17776935
255	0xbf1201b1	-0.5703383

fc1.bias f4 [512]
0	0x3d6eeb45	0.05832984
1	0xbe36b80c	-0.17843646
2	0xbda2bfa1	-0.079467066
3	0xbf0c3092	-0.5476161
4	0xbc0906c8	-0.008363433
5	0x3e296dfc	0.16545862
6	0xbcc77684	-0.024348505
7	0xbea9ada1	-0.3314028
8	0xbdceff28	-0.10107261
9	0x3e6777d7	0.22604309
10	0x3e6c8856	0.23098883
11	0xbe3ff215	-0.1874469
12	0xbe0b90c1	-0.13629438
13	0xbe8868c8	-0.26642442
14	0xbe583c2b	-0.21116702
15	0xba92bc29	-0.0011194992
16	0xbe2449e1	-0.16043808
17	0x3e4b635d	0.19862123
18	0xbc80aa47	-0.015706195
19	0xbd7f0492	-0.062260218
20	0x3dfb2e8a	0.12264736
21	0x3e7612a9	0.24030556
22	0xbc733452	-0.014844017
23	0x3ea8d817	0.32977363
24	0x3e057889	0.13034262
25	0x3e393372	0.18086031
26	0x3dcec4c7	0.10096126
27	0x3c9293bb	0.017892709
28	0xbe342209	-0.17591108
29	0xbac7182e	-0.0015189701
30	0x3dbc25d2	0.09186901
31	0x3db33d7b	0.08751961
32	0xbea3adb7	-0.3196847
33	0x3bb2abeb	0.005452623
34	0xbbf7307a	-0.0075436207
35	0xbdb13689	-0.0865298
36	0xbeaa5c1c	-0.332734
37	0xbdd18e2b	-0.102321945
38	0xbe95724e	-0.2918877
39	0x3e9dd508	0.30826592
40	0x3c620b33	0.013796615
41	0x3ca1dec3	0.019759541
42	0x3d6c6be1	0.05772007
43	0xbe94213b	-0.28931603
44	0x3c517790	0.012784854
45	0xbd69774c	-0.056998536
46	0xbd49ef35	-0.04930039
47	0x3c29dc14	0.010367412
48	0x3c54bf85	0.012985115
49	0xbddd4736	-0.10804598
50	0x3e980fe5	0.29699627
51	0xbe474a4f	-0.1946194
52	0x3de5ec5d	0.11226723
53	0xbc085a1b	-0.008322264
54	0x3e577b62	0.2104316
55	0x3e7752ac	0.2415263
56	0xbd9410bc	-0.07229754
57	0xbec0fb0b	-0.3769153
58	0x3e4840c0	0.1955595
59	0x3ddecf89	0.10879428
60	0xbd7b77d4	-0.061393574
61	0x3b4d8d25	0.0031364646
62	0xbe6be8dd	-0.23038049
63	0x3e442520	0.19154787
64	0x3e08b3e8	0.13349879
65	0x3e1216c3	0.14266495
66	0x3d57b964	0.052667037
67	0xbc9425b1	-0.018084379
68	0xbe5e6035	-0.21716388
69	0xbe24b527	-0.16084729
70	0xbdd57a23	-0.10423686
71	0xbe6a157b	-0.22859757
72	0x3e3606cd	0.17776032
73	0x3b65ae88	0.0035046656
74	0x3e32d451	0.17463805
75	0x3e9dd846	0.30829066
76	0xbc7395de	-0.014867274
77	0x3e43da1f	0.19126175
78	0xbea63211	-0.32460073
79	0x3dd0c5eb	0.10194
80	0x3eb60671	0.3555179
81	0x3e65e9b1	0.22452427
82	0xbe22412a	-0.1584517
83	0xbed34819	-0.41265944
84	0xbd5d3e63	-0.054014575
85	0xbd85468b	-0.06507596
86	0x3e7a138b	0.24421518
87	0x3e83ff19	0.25780562
88	0xbaa57266	-0.0012622594
89	0x3c2ae249	0.010429927
90	0x3de7f4e3	0.11326005
91	0xbdf92960	-0.12166095
92	0x3e5fa521	0.21840335
93	0xbe9d54af	-0.3072867
94	0xbe09893f	-0.13431261
95	0xbedabd20	-0.42722416
96	0xbe9f11e6	-0.31068343
97	0x3e691c30	0.22764659
98	0xbeb66c24	-0.3562938
99	0x3d98a217	0.07452791
100	0x3e932258	0.2873714
101	0x3e10699e	0.1410279
102	0x3dc1aae2	0.094564214
103	0xbd65926f	-0.056047853
104	0xbead5472	-0.3385349
105	0xbe9d174c	-0.30681837
106	0x3e827478	0.25479484
107	0xbe82f629	-0.2557843
108	0x3dc5bc7f	0.096550934
109	0xbdd0eafb	-0.10201069
110	0x3e7599fe	0.23984525
111	0xbe90de69	-0.28294685
112	0xbe871848	-0.26385713
113	0xbe941f19	-0.28929976
114	0xbec8d042	-0.39221388
115	0x3e4de8f2	0.20108393
116	0x3d98cd01	0.074609764
117	0xbd1e579f	-0.03865778
118	0xbe66d98a	-0.22543922
119	0x3e42abe0	0.19010878
120	0x3e329cb4	0.1744259
121	0xbdb23a23	-0.08702495
122	0xbe42cefa	-0.19024268
123	0xbe995ae0	-0.29952145
124	0xbec14fe2	-0.37756258
125	0xbe38e386	-0.18055543
126	0x3d941df2	0.07232274
127	0xbeadb87f	-0.33929822
128	0x3cb6aceb	0.02229925
129	0xbd81536d	-0.0631474
130	0xbd8b2ee5	-0.06796054
131	0xbd966c45	-0.073448695
132	0x3ddfbdd7	0.10924881
133	0xbb9d3ca9	-0.004798491
134	0xbd440fb3	-0.047866534
135	0x3e3fddf0	0.18737006
136	0xbe91213a	-0.28345662
137	0xbdd0a818	-0.10188311
138	0xbe96dbf6	-0.29464692
139	0x3e4589c0	0.19290829
140	0x3e48c276	0.19605431
141	0xbefff429	-0.49990967
142	0x3e585a5d	0.21128221
143	0xbd46d422	-0.04854215
144	0xbe756559	-0.23964442
145	0x3e448457	0.19191109
146	0x3e4d9550	0.2007649
147	0xbccae7a3	-0.024768656
148	0x3e12342f	0.14277719
149	0xbd8d21fb	-0.06891247
150	0xbe3e86ef	-0.1860616
151	0x3e6e8e3e	0.23296449
152	0x3dbb709b	0.09152337
153	0x3e095872	0.13412645
154	0xbe926fb5	-0.2860085
155	0x3e5786c2	0.210475
156	0x3e83974f	0.25701377
157	0xbdb9abbe	-0.0906596
158	0x3d8be902	0.06831552
159	0x3e69a1af	0.22815584
160	0x3e2d2fff	0.1691284
161	0x3db3e8d7	0.08784645
162	0x3d8c5eec	0.068540424
163	0x3d66f3b0	0.056384742
164	0xbc5e66bc	-0.0135742985
165	0xbe72df37	-0.23717962
166	0x3d9ae08c	0.0756236
167	0xbe6a4e85	-0.22881515
168	0xbdf83e4a	-0.12121256
169	0xbeb2984c	-0.34881818
170	0xbe947ae1	-0.29
171	0x3cad2169	0.021134095
172	0xbf0e2265	-0.5552123
173	0x3e3282da	0.17432728
174	0xbd080b6b	-0.033214014
175	0xbe1ed59a	-0.1551117
176	0xbe7d1c8d	-0.24717923
177	0x3db4adfc	0.088222474
178	0x3e6ada2e	0.22934791
179	0x3d960035	0.07324258
180	0xbdf47dba	-0.11938043
181	0xbe074bf5	-0.13212569
182	0xbe7b426d	-0.24537058
183	0x3d9094a4	0.07059601
184	0x3d7ce00f	0.061737116
185	0x3d5a1672	0.05324406
186	0xbe25af92	-0.16180256
187	0x3da72c7c	0.081627816
188	0x39669663	0.00021990533
189	0xbeab30bb	-0.33435616
190	0x3ee6910b	0.45032534
191	0x3cebf5b9	0.028803693
192	0x3d9c77a9	0.07640011
193	0xbeaa5f95	-0.33276048
194	0xbeec0904	-0.46100628
195	0x3d5caa3c	0.053873286
196	0x3dd3234c	0.10309467
197	0xbde578cf	-0.11204683
198	0xbec4d34b	-0.38442454
199	0x3a4c905c	0.00078034936
200	0x3cdc4228	0.026887015
201	0xbcbd2dfc	-0.023093216
202	0xbd362eef	-0.044478353
203	0xbde5cb23	-0.11220386
204	0xbe4c6336	-0.19959721
205	0x3d4aec1e	0.049541585
206	0x3dba0e8a	0.09084804
207	0x3dbc6bf5	0.09200279
208	0xbdb20bff	-0.08693694
209	0xbecb39aa	-0.39692432
210	0xbddb27db	-0.10700961
211	0xbe44227d	-0.19153781
212	0xbe75464b	-0.23952596
213	0x3e265d5d	0.16246553
214	0x3d12fdca	0.035886563
215	0x3e06602c	0.13122624
216	0xbe86db89	-0.26339367
217	0x3c5c2254	0.013435919
218	0x3d804330	0.06262815
219	0xbd3b1f0b	-0.0456839
220	0x3cda53df	0.026651321
221	0x3d5aa8cd	0.053383637
222	0xbda96749	-0.08271653
223	0x3e338284	0.17530257
224	0xbcf9fa76	-0.030514937
225	0xbe3bd290	-0.18342042
226	0xbe548df4	-0.20757276
227	0x3db40aac	0.08791098
228	0xbeab226c	-0.334247
229	0x3e0e0122	0.1386762
230	0xbdb4abef	-0.08821856
231	0xbd3dc28e	-0.04632812
232	0x3e141400	0.14460754
233	0x3e400cdc	0.18754905
234	0x3e0f53f6	0.13996872
235	0x3e59bb64	0.2126289
236	0xbe5093a0	-0.20368814
237	0xbd63916e	-0.055558614
238	0x3d26b8b9	0.04070351
239	0xbd5bcc1c	-0.05366145
240	0x3c43b967	0.011946059
241	0x3d2b1d0e	0.041775756
242	0xbdf8d312	-0.121496335
243	0xbe8a18aa	-0.26971942
244	0xbed96b4a	-0.42464668
245	0x3d925be4	0.07146433
246	0x3d90daac	0.07072958
247	0x3dc20550	0.094736695
248	0xbe5f2533	-0.21791534
249	0x3c678c47	0.014132566
250	0xbc9c62c5	-0.019090066
251	0xbe340329	-0.1757933
252	0xbe86682b	-0.2625135
253	0xbee679ab	-0.450147
254	0xbe81ce50	-0.25352716
255	0xbd99e473	-0.07514276

fc2.weight f4 [256, 512]
0	0xbc89969f	-0.016795455
1	0xb9894242	-0.00026180042
2	0x3ba623a2	0.0050701657
3	0x3c8971f4	0.01677797
4	0xbc9de93d	-0.019276256
5	0x3a04bbe2	0.0005063397
6	0xbcd9026e	-0.026490416
7	0xbca1bfc9	-0.01974477
8	0x3be00766	0.0068368195
9	0xbae3ea90	-0.0017388631
10	0xbd67143c	-0.05641578
11	0xbce2fe0e	-0.027709033
12	0x3ca4f911	0.020138295
13	0xbc85bf78	-0.016326651
14	0xbcc7c4c7	-0.024385823
15	0xb9edb99a	-0.00045342447
16	0xbcd7b12f	-0.026329605
17	0xbd424bd9	-0.047435615
18	0xbb8446ac	-0.004036745
19	0xbb40a8b2	-0.0029397425
20	0x3c0d4133	0.008621502
21	0xbd548154	-0.05188115
22	0xbd1eb0ac	-0.038742706
23	0xbd4b9303	-0.04970075
24	0xbc0261ed	-0.007957918
25	0x3bf4af00	0.0074671507
26	0xbd139001	-0.036026005
27	0xbd1f20ad	-0.03884952
28	0xbd26aae4	-0.040690318
29	0x3cafe73e	0.02147257
30	0xbcaec1d2	-0.021332655
31	0xbd55cc0c	-0.052196547
32	0x3b8c996a	0.0042907493
33	0x3be3594c	0.0069381353
34	0xbba6af7a	-0.0050868364
35	0x3c174c92	0.009234564
36	0xbcb84ef3	-0.022498583
37	0xbd17f1ab	-0.037095707
38	0xbcd4c17a	-0.025971163
39	0xbd25069e	-0.040289514
40	0xbccdab97	-0.025106234
41	0xbc89a880	-0.01680398
42	0x3bbc170e	0.005740053
43	0xbccf24a5	-0.025286028
44	0xbb2751bc	-0.0025530895
45	0x3c3af35d	0.011410561
46	0xbb295e73	-0.002584365
47	0xbb322cce	-0.002718735
48	0x3ba49235	0.005022312
49	0xbc3795b2	-0.011205124
50	0xbd16cc61	-0.036816005
51	0x3c541959	0.0129454965
52	0xbc4a4d13	-0.0123474775
53	0xbd6042c6	-0.05475118
54	0xbd0d6c29	-0.034526978
55	0xbca2c21a	-0.019867945
56	0xbd44e6c5	-0.04807164
57	0xbc970561	-0.018435182
58	0x3b83ca5e	0.004021927
59	0x3cfd2620	0.030901968
60	0xbcad94a9	-0.02118905
61	0x3bb5fed3	0.005554059
62	0xbc30a6f2	-0.01078199
63	0xbc2f8cc4	-0.0107147135
64	0xbcafa8d0	-0.0214428
65	0xbaf408e2	-0.001861837
66	0x3c9293d0	0.017892748
67	0x3c868d7b	0.016424885
68	0xbb111b97	-0.002214169
69	0xbb743cb3	-0.0037267625
70	0x3d346a01	0.044046406
71	0x3b20f771	0.002456155
72	0xbd15979c	-0.03652154
73	0x3c1b9c57	0.009497724
74	0x3be8ebc4	0.0071081836
75	0xbcf429cc	-0.029805087
76	0xbc952b17	-0.018209023
77	0xbd2de30d	-0.04245286
78	0xbc8b738b	-0.017022869
79	0x3d011b19	0.031519983
80	0x3cab4e3c	0.020911328
81	0x3c90c651	0.01767269
82	0x3bb248ba	0.0054407986
83	0xbcf7631a	-0.030198622
84	0x38c05816	9.171681e-05
85	0xbd087540	-0.033314943
86	0x3bbe4c86	0.005807462
87	0x3bbb1c08	0.0057101287
88	0xbca99436	-0.020700555
89	0xbc9beace	-0.019032862
90	0xbbf3f5b2	-0.0074450606
91	0xbd1ae424	-0.037815228
92	0xbd6e0231	-0.05810756
93	0xbd6612b6	-0.056170188
94	0xbc950a8b	-0.018193504
95	0x3d1dafff	0.03849792
96	0xbbb95dcd	-0.005656934
97	0xbcc52338	-0.024064645
98	0xbd1f651f	-0.038914796
99	0xbd6b38b6	-0.05742713
100	0x3ba5b937	0.0050574797
101	0xbbce1601	-0.006289244
102	0xbcad5000	-0.021156311
103	0xbcf04ff5	-0.029335001
104	0xbc3a4c5d	-0.0113707455
105	0x3aa5487a	0.0012610101
106	0x3ca7460c	0.020419143
107	0x3cf956e5	0.030436942
108	0xbbc2bada	-0.0059426846
109	0xbd23b1d9	-0.03996453
110	0x3d27cc54	0.040966347
111	0xbd033c0f	-0.0320397
112	0xbd2a7ac9	-0.041621003
113	0x3cf640f7	0.030060275
114	0xbb9b07f5	-0.004731173
115	0xbcf491e0	-0.029854715
116	0xbabae8db	-0.001426007
117	0xbc7afcba	-0.015319044
118	0xbb3af349	-0.0028526357
119	0x3cc46586	0.023974191
120	0xbcad5100	-0.021156788
121	0x3aee1b29	0.0018166053
122	0xbce09a88	-0.027417436
123	0x3c68a828	0.014200248
124	0xbcb080e5	-0.021545837
125	0xbd074a6d	-0.033029962
126	0xbc726c0e	-0.01479627
127	0x3b3d10ff	0.0028849242
128	0xbc87b54d	-0.016565943
129	0x3c06de7d	0.008231756
130	0x3b95508c	0.004556721
131	0xbca65b5f	-0.020307241
132	0x3c42e8db	0.011896337
133	0xbd45a220	-0.048250318
134	0xbb754a36	-0.0037428266
135	0xbd13e9ec	-0.036111757
136	0xbd169874	-0.036766484
137	0x3c0cb72a	0.008588592
138	0x3c4fbbb4	0.012679029
139	0xbd08d69f	-0.033407804
140	0xbcd1a4d1	-0.025591286
141	0x3a7253e4	0.0009244068
142	0xbd3bd88b	-0.04586081
143	0xbd142264	-0.03616561
144	0xbcd2dfa0	-0.025741398
145	0x3bf687c1	0.0075235073
146	0xbca7e031	-0.020492645
147	0xbcbe306a	-0.023216445
148	0xbcb875b8	-0.02251707
149	0xbcb001ed	-0.021485293
150	0xbc2100d0	-0.009826854
151	0x3c593d6f	0.013259276
152	0xba309c92	-0.0006737198
153	0x3cff4f8f	0.031165866
154	0xbc0757d3	-0.008260685
155	0x3c81cd89	0.015845077
156	0xbb545cc4	-0.0032403925
157	0xbbb92f35	-0.0056513795
158	0x3d079131	0.03309745
159	0x3c46bda7	0.012130178
160	0xbd4144ad	-0.047184635
161	0xbcfb80c0	-0.030701041
162	0xbca08829	-0.019596176
163	0xbcb53984	-0.022122152
164	0xbc527bf2	-0.012846934
165	0xbd623882	-0.05522967
166	0x3c51ddc0	0.012809217
167	0x3c1bd35a	0.009510839
168	0xbd5f0e66	-0.05445709
169	0xbaf325d1	-0.0018550699
170	0xbc1d006a	-0.009582618
171	0x3d137acd	0.036005784
172	0x3bb21a11	0.0054352363
173	0x3cdf29e3	0.027241653
174	0xbcad9af7	-0.021192057
175	0xbc1ddc42	-0.009635033
176	0x3b4c54aa	0.0031178393
177	0xbd2ab757	-0.041678753
178	0xbd4022a6	-0.046908043
179	0xbc8bf59f	-0.017084895
180	0xbd2e970e	-0.042624526
181	0xbd275e1f	-0.040861245
182	0xbc2365a1	-0.009972961
183	0xbd01f45a	-0.031727172
184	0xbc03f0ca	-0.008053014
185	0x3b6ef1a9	0.0036459959
186	0xbd0f14ec	-0.034932062
187	0xbbf3906f	-0.0074329893
188	0xbc829640	-0.015940785
189	0xbc1127e0	-0.008859605
190	0x3d21632d	0.039401222
191	0xbcc6bce5	-0.024259994
192	0xbbf92b70	-0.007604055
193	0xbb61ea88	-0.0034472067
194	0x3c8b43f0	0.017000169
195	0xbd5f3f86	-0.05450394
196	0xbc0198a4	-0.0079099275
197	0xba58b24b	-0.0008266314
198	0x3c284328	0.010269918
199	0xbd491f55	-0.049102146
200	0xbc88cacd	-0.016698265
201	0x3cdec9cf	0.02719584
202	0x3c99c0fd	0.018768782
203	0x3d066dc1	0.032819513
204	0xbc9e38ec	-0.019314252
205	0xbd7323cd	-0.059360314
206	0xbd07ae8a	-0.033125438
207	0x3cac5a67	0.021039201
208	0xbc99e97e	-0.018788096
209	0xbcc77fb8	-0.024352893
210	0xbcb35fdd	-0.021896297
211	0x3ccca1ad	0.024979437
212	0x3cb3f10a	0.021965522
213	0x3c19ee9c	0.009395268
214	0xbb6e166f	-0.003632929
215	0x3d14d3cd	0.0363348
216	0xbc3cd369	-0.0115250135
217	0xbc5f639d	-0.0136345895
218	0x3cea96b9	0.028636323
219	0xbccd4482	-0.025057081
220	0x3ccd80d8	0.025085852
221	0xbd644ac6	-0.055735372
222	0xbc29ae2a	-0.010356465
223	0xbce0bfb0	-0.027435154
224	0x39fa874b	0.00047784517
225	0xbcf500e1	-0.029907646
226	0x3ca4c9d6	0.020115774
227	0x3d140ff9	0.036148045
228	0xbd2113aa	-0.039325394
229	0x3c80502f	0.015663235
230	0xbc299297	-0.010349891
231	0xbd1166b2	-0.03549833
232	0xbcb70003	-0.022338873
233	0xbd5baac8	-0.053629667
234	0xbd28cf96	-0.041213594
235	0xbabef4f1	-0.0014568848
236	0x3afd347a	0.0019318007
237	0xbc61e3a8	-0.013787188
238	0xbb551bac	-0.0032517714
239	0xbd5e8752	-0.05432827
240	0xbcf5bc8a	-0.029997129
241	0x3ce14b62	0.027501766
242	0xbc61fbc9	-0.01379294
243	0x3c9747fc	0.018466942
244	0xbc2c91bc	-0.010532793
245	0xbcccb663	-0.024989313
246	0xbd50c057	-0.05096468
247	0xbd75a0cf	-0.059967812
248	0x3c9f065e	0.019412216
249	0xbd035e4f	-0.03207236
250	0x3adf7c3e	0.0017050577
251	0x3a9f8d23	0.0012172799
252	0x3d264e5a	0.040602066
253	0xbcaaff75	-0.020873765
254	0x3cecd76e	0.028911319
255	0xbd108d1c	-0.035290822

fc2.bias f4 [256]
0	0xbce3815a	-0.02777164
1	0x3c8fb8ae	0.017544117
2	0xbc29aeeb	-0.010356645
3	0x3c878a33	0.01654539
4	0x3cafdf60	0.021468818
5	0xbc5338fa	-0.012892002
6	0xbb915ff1	-0.004436486
7	0xbced2f0f	-0.028953103
8	0x3bb9540a	0.00565577
9	0xba9f1695	-0.0012137467
10	0x3cdfa9d1	0.027302654
11	0xbe010cd3	-0.12602548
12	0x3e184929	0.14871658
13	0xbd2ac45c	-0.04169117
14	0xbd0bc16d	-0.034120012
15	0xbc140648	-0.009034701
16	0xba0d6170	-0.00053932425
17	0xbca1757d	-0.019709343
18	0x3cc936f0	0.024562329
19	0xbd039162	-0.03212107
20	0x3dddbbd0	0.10826838
21	0xbdcd85c4	-0.100352794
22	0xbc6c80a8	-0.014434971
23	0x3d0ea22c	0.034822628
24	0x3d8840a5	0.06652955
25	0xbdc8d23b	-0.09805723
26	0xbd35b558	-0.044362396
27	0xbd4cb982	-0.0499816
28	0x3d9aaad8	0.07552117
29	0xbc6a2c26	-0.014292752
30	0x3c507e2f	0.012725397
31	0xbd4fb884	-0.050713077
32	0x3c14b90c	0.009077322
33	0xbd00bb5f	-0.03142869
34	0x3dda6f14	0.10665718
35	0xbd1675fe	-0.03673362
36	0xbe323d9e	-0.17406318
37	0xbc49f9ab	-0.012327592
38	0xbd9579e3	-0.07298639
39	0xbdac24ff	-0.08405494
40	0xbd661406	-0.05617144
41	0xbc4de641	-0.012567104
42	0x3c0fc349	0.008774587
43	0xbadee3f5	-0.0017005192
44	0x3b769db4	0.003763062
45	0x3d49027a	0.049074627
46	0x3da31a47	0.079639964
47	0x3c420827	0.011842764
48	0xbd407d81	-0.04699469
49	0xbd815a10	-0.06316006
50	0xbd4c7b75	-0.049922425
51	0x3dfd0824	0.12355068
52	0x3ce5a82c	0.028034292
53	0xbafdd800	-0.0019366741
54	0xbda0effb	-0.07858273
55	0x3c23e92e	0.010004325
56	0xbc0dc8ad	-0.008653802
57	0xbd05461c	-0.032537565
58	0xbdc82991	-0.09773553
59	0xbc9b6801	-0.018970491
60	0x3c0eec46	0.008723324
61	0x3db19ab8	0.086720884
62	0xbce446c2	-0.027865771
63	0xbb634403	-0.003467799
64	0xbd7e51e2	-0.06208981
65	0xbd87ee48	-0.066372454
66	0x3a9b2f4c	0.0011839657
67	0xbd560ef6	-0.05226036
68	0x3c0b1acb	0.008490275
69	0xbe5accdb	-0.21367209
70	0xbd502439	-0.050815795
71	0xbbae9792	-0.005328127
72	0x3c3fda41	0.011709751
73	0xbb170ca0	-0.0023048297
74	0xbcdde773	-0.027087903
75	0xbd03fac8	-0.032221586
76	0xbc9bcf5e	-0.019019779
77	0xbd23014c	-0.03979616
78	0xbbc8aeb8	-0.0061243437
79	0xbd526cb5	-0.051373202
80	0xbdb8c776	-0.09022419
81	0xbba36346	-0.0049861996
82	0x3cac2c60	0.021017253
83	0xbd515626	-0.05110755
84	0x3cb1bf66	0.021697711
85	0xbd717f4a	-0.058959283
86	0x3c9cad69	0.019125657
87	0x3d0cbd63	0.0343603
88	0xbc6570e5	-0.014003967
89	0xbc533dd4	-0.012893159
90	0x3bad4c79	0.0052886573
91	0x3b8b40ae	0.004249654
92	0xbcfd424a	-0.030915398
93	0xbd3baa36	-0.045816623
94	0x3d831478	0.064003885
95	0x3d05174a	0.032492913
96	0x3cf59563	0.02997846
97	0xbc93d8c1	-0.018047692
98	0x3d91ddab	0.07122358
99	0x3cc6c784	0.024265058
100	0x3d105aa6	0.0352427
101	0x3d58a81c	0.052894697
102	0xbc9be915	-0.01903204
103	0x3c4f6144	0.012657467
104	0x3d117953	0.035516094
105	0xbb0e9aa9	-0.0021759665
106	0xbd8d5cc1	-0.06902457
107	0x3c334fca	0.010944316
108	0xbe03f40f	-0.1288607
109	0xbd419425	-0.047260422
110	0xbc4e6040	-0.01259619
111	0xbbc95c58	-0.0061450414
112	0x3d65d9ca	0.056115903
113	0xbbfb0c54	-0.0076613817
114	0xbd4f05d8	-0.050542682
115	0x3c805526	0.015665602
116	0xbd876a2c	-0.066120476
117	0x3cb849c8	0.02249612
118	0xbbfe8d8f	-0.00776834
119	0x3cce9b45	0.025220523
120	0x3c40e9c8	0.011774488
121	0xbd1d9dcf	-0.038480576
122	0xbc8b7612	-0.017024074
123	0x3c902ce9	0.01759954
124	0xbcd96d63	-0.026541417
125	0xbbe99fff	-0.0071296687
126	0xbd4892f7	-0.04896828
127	0xbd1a8fc9	-0.03773478
128	0x3c9e2a01	0.019307138
129	0xbe5ce6dc	-0.21572441
130	0x3d2965f4	0.041356996
131	0x3cb50d0e	0.022100952
132	0x3dc51fb9	0.09625191
133	0x3c990143	0.01867736
134	0xbcd9d27e	-0.026589628
135	0x3ce5315b	0.027977636
136	0xbd9809d5	-0.0742375
137	0xbc44475e	-0.011979906
138	0xbc56bea3	-0.013106975
139	0x3c8cf270	0.017205447
140	0xbdb4be0c	-0.08825311
141	0xbc95c54b	-0.018282553
142	0xbb760dce	-0.003754485
143	0xbc7b0340	-0.015320599
144	0x3bc152c3	0.0058997585
145	0xbcf4f30f	-0.029901056
146	0x3b8d2aa1	0.0043080603
147	0xbd363de0	-0.044492602
148	0xbdd6dd87	-0.10491472
149	0xbbc929f6	-0.0061390353
150	0xbd461c68	-0.048366934
151	0xbb818a9b	-0.0039532906
152	0x3d2484fd	0.04016589
153	0xbcae8358	-0.021302864
154	0xbe072ce1	-0.13200714
155	0xbd41d4bb	-0.047322016
156	0xbd6a3127	-0.05717578
157	0x3ddce932	0.10786666
158	0x3e21e621	0.15810443
159	0xbc97cfb3	-0.018531656
160	0x3c3ec271	0.011643038
161	0xbd0834ab	-0.033253353
162	0xbd21e0b8	-0.03952095
163	0x3ca76810	0.020435363
164	0xbca67b4d	-0.020322466
165	0x3c62ee5b	0.013850774
166	0xbd819b24	-0.06328419
167	0xbd379ac6	-0.044825338
168	0x3c640b7d	0.013918755
169	0xbcbd1a9f	-0.023083983
170	0x3c3bb25f	0.011456101
171	0x3d645796	0.05574759
172	0x3aca4744	0.0015432616
173	0x3b5ca971	0.003367033
174	0xbd6a09f7	-0.05713841
175	0x3e0f0e86	0.13970384
176	0xbdfc90a4	-0.123322755
177	0xbd2d5383	-0.04231597
178	0xbcbe8734	-0.02325783
179	0xbd44bc9c	-0.048031434
180	0xbbf77d88	-0.0075528063
181	0xbb55e95c	-0.0032640314
182	0xbd5efabc	-0.054438338
183	0xbe38b726	-0.18038616
184	0xbd1493b8	-0.036273688
185	0x3be31433	0.006929898
186	0xbd100ec1	-0.03517032
187	0xbd3ec9bb	-0.046579104
188	0xbd894b72	-0.06703843
189	0x3dcce46e	0.10004507
190	0x3da1062a	0.07862504
191	0x3dc6642f	0.09687077
192	0xbe130a8b	-0.1435949
193	0xbb7b71be	-0.0038367356
194	0xba4b3490	-0.0007751668
195	0x3c02ed02	0.007991077
196	0x3dcbb9b0	0.099475265
197	0xbd07098b	-0.032968085
198	0x3b73dcf0	0.0037210546
199	0x3db7159b	0.08939668
200	0xbdac56d9	-0.084150024
201	0x3cede9d4	0.029042162
202	0xbd009735	-0.031394202
203	0xbd764c9b	-0.06013165
204	0x3cd08a3c	0.02545654
205	0x3e25de88	0.1619817
206	0x3d5e1449	0.054218564
207	0xbbb790bb	-0.00560197
208	0xbe0fbb96	-0.14036402
209	0xbd506322	-0.05087579
210	0xbe134aa3	-0.1438394
211	0xbb8639b5	-0.0040962347
212	0xbb832ff2	-0.0040035183
213	0xbcec5014	-0.028846778
214	0xbc263708	-0.010144956
215	0x3dc5a8dc	0.09651348
216	0xbc0da872	-0.0086461175
217	0x3dc46351	0.095892556
218	0x3b624eef	0.0034531911
219	0xbba765bf	-0.0051085646
220	0xbc48e7ad	-0.012262267
221	0xbd74f17d	-0.059800614
222	0xbd323acd	-0.043513108
223	0xbce58d8d	-0.028021598
224	0xbd172290	-0.036898196
225	0xbd2fedef	-0.04295152
226	0xbd329d30	-0.043606937
227	0xbcae6e11	-0.021292718
228	0xbd333d91	-0.043759886
229	0xbd08bedd	-0.033385146
230	0x3d102cbd	0.035198916
231	0xbdbadf39	-0.091246076
232	0xbd09f57f	-0.03368139
233	0xbd1febda	-0.039043285
234	0xbb63c7c6	-0.0034756525
235	0x3d3db8b8	0.04631874
236	0xbd8695f0	-0.06571567
237	0x3c06f51c	0.00823715
238	0xbdc1622c	-0.09442553
239	0xbc4c8ecb	-0.012485216
240	0xbbafffda	-0.005371076
241	0xbd8fda3f	-0.07024049
242	0xbdc929dc	-0.09822437
243	0x3ac4431d	0.0014973615
244	0xbd10ab39	-0.03531954
245	0xbd931ccb	-0.07183226
246	0x3c80e54f	0.015734343
247	0xbc8a21ac	-0.01686176
248	0xbe2425e5	-0.1603008
249	0xbd5c8bbd	-0.053844202
250	0xbd7cbeca	-0.061705388
251	0xbc306ce1	-0.010768146
252	0x3da0c991	0.07850946
253	0xbb31cf95	-0.0027131785
254	0xbd0823ad	-0.033237148
255	0xbd47da73	-0.048792314

fc3.weight f4 [128, 256]
0	0x3d0fcb8a	0.03510622
1	0x3cdff8fe	0.027340408
2	0x3e145248	0.14484513
3	0xbbf78fe3	-0.0075549944
4	0x3ded342c	0.115822166
5	0xbd4dc5d0	-0.050237477
6	0x3d484689	0.048895393
7	0x3c57d533	0.013173389
8	0x3ceb17c6	0.02869786
9	0xbd64f628	-0.055898815
10	0xbe16e98a	-0.14737526
11	0xbe4b09ea	-0.19828
12	0x3e5baded	0.21453066
13	0x3d35bb54	0.044368103
14	0x3c63e7b6	0.013910225
15	0x3d392b70	0.04520744
16	0xbdb00054	-0.085938126
17	0x3d5fa329	0.05459896
18	0x3c86de00	0.01646328
19	0x3d66aa83	0.056314956
20	0x3e542e76	0.20720848
21	0x3eafa1e8	0.34303212
22	0xbd2eaffd	-0.042648304
23	0xb820532c	-3.8224433e-05
24	0xbde050ea	-0.10952933
25	0x3e46d8f4	0.19418699
26	0x3d1af599	0.037831876
27	0x3acc2272	0.001557423
28	0x3e0a94d8	0.13533342
29	0x3d2933d5	0.041309197
30	0x3b816d64	0.003949808
31	0xbd8cfd98	-0.06884307
32	0x3ca378e8	0.019955114
33	0x3c07d6aa	0.008290926
34	0x3e0b3141	0.13593008
35	0x3d703694	0.0586458
36	0xbe62d31a	-0.22150841
37	0x3c0375c9	0.008023688
38	0xbd4b2445	-0.049595136
39	0x3d934c11	0.07192243
40	0xbd2dd0c0	-0.042435408
41	0xbd117418	-0.035511106
42	0xbcf55c99	-0.02995138
43	0xbd85b356	-0.06528346
44	0x3d0a7f38	0.03381273
45	0xbd34ed80	-0.04417181
46	0x3e457c03	0.19285588
47	0x3c963df7	0.018340094
48	0xbd4f8187	-0.050660636
49	0x3ba9d919	0.0051833508
50	0x3d7ddf36	0.06198045
51	0x3e193574	0.14961797
52	0x3d00d55a	0.031453468
53	0x3c9c0d6c	0.019049369
54	0xbdf6466c	-0.12025151
55	0x3c056606	0.008142
56	0x3cd3a08c	0.02583339
57	0xbea254f6	-0.31705445
58	0x3dbd2d86	0.092371985
59	0xbc6bf00f	-0.014400496
60	0xbde50083	-0.11181738
61	0x3e3cda80	0.18442726
62	0xbe15486a	-0.14578405
63	0xbd28689b	-0.041115385
64	0x3d586c1b	0.052837472
65	0x3e859689	0.26091412
66	0x3e1e705d	0.1547255
67	0x3e0abc11	0.13548304
68	0xbd74edee	-0.05979722
69	0xbdec220e	-0.11529933
70	0xbc9a7414	-0.018854178
71	0x3db4efb3	0.088347815
72	0x3c9a9143	0.018868094
73	0x3dcc3f28	0.099729836
74	0xbd18ed50	-0.037335694
75	0xbd95d8f5	-0.07316772
76	0x3d91905f	0.07107615
77	0xbc4b7bae	-0.012419624
78	0x3d5dcca3	0.054150235
79	0xbeb7b57e	-0.35880655
80	0x3dd714ef	0.1050204
81	0x3dfdb53e	0.12388085
82	0x3de62ab3	0.11238613
83	0xbe4bc3e9	-0.19898953
84	0x3d0daf95	0.034591276
85	0x3df105b4	0.11768666
86	0xbcca8d07	-0.02472545
87	0xbe1043ef	-0.14088415
88	0x3cd36e1d	0.025809342
89	0x3e02e995	0.12784417
90	0x3d2f4840	0.042793512
91	0x3d81dc83	0.063408874
92	0xbd22d592	-0.039754458
93	0x3cf46877	0.029834969
94	0xbb893000	-0.0041866302
95	0x3cd2139c	0.025644116
96	0xbd5acd0e	-0.05341821
97	0x3ccc11b5	0.024910787
98	0x3db63fae	0.08898865
99	0x3df7886f	0.120865695
100	0x3e2ca988	0.16861546
101	0x3c9c9353	0.019113218
102	0xbd010ca5	-0.0315062
103	0x3b844c92	0.004037448
104	0x3e3656e6	0.17806587
105	0xbbfbbd11	-0.0076824506
106	0x3df5dc8f	0.12004959
107	0x3d045598	0.03230819
108	0xbd3e784b	-0.04650144
109	0x3c876cf2	0.016531441
110	0x3d4a2e9e	0.049360864
111	0xbc354a10	-0.011065021
112	0x3c5df97b	0.01354825
113	0xbc46e51f	-0.012139588
114	0x3c2e28e3	0.010629865
115	0x3d843d62	0.0645702
116	0xbd883170	-0.066500545
117	0xbcc990d8	-0.0246052
118	0xbe9c7b49	-0.3056281
119	0x3bd5dee2	0.006526814
120	0xbe2779f9	-0.16355123
121	0x3e81c5d1	0.25346234
122	0x3e8167fe	0.25274652
123	0x3b9e33da	0.0048279585
124	0x3e52a953	0.20572405
125	0xbd6e675a	-0.058204032
126	0xbd99777b	-0.07493492
127	0xbcc5b680	-0.024134874
128	0xbd2ce200	-0.042207718
129	0xbdbe8354	-0.093023926
130	0x3e917583	0.28409967
131	0x3df2c83a	0.118545964
132	0x3bd015e9	0.006350268
133	0x3e020912	0.12698773
134	0x3d46eef4	0.048567727
135	0x3d814a8f	0.06313049
136	0xbd35ea11	-0.044412676
137	0xbd3695ae	-0.04457634
138	0x3cb33b65	0.021878907
139	0x3e086a47	0.13321792
140	0xbe20b42b	-0.15693729
141	0x3d330403	0.043704998
142	0xbd55ac5a	-0.05216632
143	0xbbca8d10	-0.0061813667
144	0x3d1799c0	0.03701186
145	0xbd7070b6	-0.05870124
146	0x3b53dc30	0.0032327287
147	0x3d7621d5	0.06009086
148	0xbed5ad36	-0.41733712
149	0x3c348a35	0.011019279
150	0xbe30e2f8	-0.17274082
151	0x3bfa9245	0.007646831
152	0xbe6d5c56	-0.23179755
153	0xbc6e4218	-0.014542125
154	0x3c8d87e9	0.017276721
155	0xbd89477f	-0.0670309
156	0xbc9df6a0	-0.019282639
157	0x3decc55c	0.11561081
158	0x3e47f4e5	0.19527014
159	0x3d2ea93c	0.042641863
160	0x3c81e23c	0.015854947
161	0x3d7cd180	0.061723232
162	0x3ada7131	0.0016665814
163	0xbd7f622c	-0.062349483
164	0xbc465cf8	-0.012107126
165	0x3e07eefc	0.13274759
166	0x3c6362bc	0.013878521
167	0x3d75cd5c	0.0600103
168	0xbbc52bb9	-0.006017175
169	0xbc6034b9	-0.013684445
170	0x3d61302d	0.054977585
171	0x3e22ce2e	0.15898964
172	0x3d0a4b5f	0.033763286
173	0xbd210178	-0.03930804
174	0xbe241b58	-0.16026056
175	0x3da3fa10	0.0800668
176	0xbe20a87e	-0.15689275
177	0xbbb77020	-0.005598083
178	0xbd7a6489	-0.061131034
179	0xbda000ee	-0.07812677
180	0x3d2de60c	0.042455718
181	0x3d2106d3	0.03931315
182	0xbc3f5123	-0.011677059
183	0xbd9cb506	-0.07651715
184	0xbe2ac48e	-0.16676542
185	0xbe1f43ab	-0.15553157
186	0xbc2602dc	-0.010132518
187	0x3dacbd94	0.08434597
188	0xbd94ef16	-0.072721645
189	0x3e683804	0.22677618
190	0xbf074055	-0.5283254
191	0xbd183258	-0.037157387
192	0xbdf24196	-0.11828916
193	0x3c88357d	0.016627068
194	0x3c0ae84c	0.008478235
195	0x3d0e5ce8	0.03475657
196	0x3dfcf092	0.12350573
197	0x3e40e693	0.18837957
198	0xbd04007c	-0.032227024
199	0x3da74af4	0.08168593
200	0xbcf4d027	-0.029884411
201	0xbc9646e8	-0.018344358
202	0xbb86bfd9	-0.0041122255
203	0xbd8fb9d7	-0.07017868
204	0x3dbc092b	0.09181436
205	0x3e5850a6	0.21124515
206	0x3d945345	0.07242445
207	0xbb36daea	-0.002790148
208	0x3ca97aaa	0.020688374
209	0xbb9384f7	-0.0045019346
210	0xbce4455a	-0.0278651
211	0x3db12e70	0.086514354
212	0x3b908953	0.0044109016
213	0xbd3dcaf7	-0.04633614
214	0xbd0da8ab	-0.034584682
215	0x3e148815	0.14505036
216	0xbcbf9af6	-0.02338932
217	0x3dbde4a2	0.09272124
218	0x3d868723	0.06568744
219	0xbe0e5dc1	-0.13902952
220	0xbd68e24c	-0.05685644
221	0x3e6f2577	0.23354135
222	0xbdaa42ef	-0.08313548
223	0xbdadea0b	-0.08491906
224	0x3c8f2fc3	0.01747883
225	0xbd560c67	-0.05225792
226	0x3e6a7d6c	0.22899407
227	0x3d4c846a	0.049930967
228	0xbd06bd73	-0.032895517
229	0xbcfd33b8	-0.03090845
230	0x3db812a9	0.08987934
231	0xbdc70efe	-0.097196564
232	0xbc54fed6	-0.013000211
233	0xbde34610	-0.11097348
234	0x39ff2100	0.00048661977
235	0xbdb95cb2	-0.09050883
236	0x3d9e549f	0.07730984
237	0xbd7c4664	-0.061590567
238	0xbd6ca04d	-0.057770062
239	0x3e85db03	0.26143655
240	0x3b71162f	0.0036786904
241	0x3d37a6d9	0.044836853
242	0xbd6e4ed1	-0.058180634
243	0xbcf20a41	-0.029545905
244	0x3d253227	0.040331032
245	0x3e019a57	0.12656532
246	0x3d2bae73	0.041914415
247	0x3b54abfb	0.003245114
248	0x3e50c978	0.20389354
249	0xbdc9c8a9	-0.09852726
250	0xbed77abf	-0.42085835
251	0x3dafd92e	0.085863456
252	0x3e09ea36	0.1346825
253	0x3d02c487	0.031925704
254	0x398eb3b8	0.00027218251
255	0x3c91f509	0.017817037

fc3.bias f4 [128]
0	0x3dcd47db	0.10023471
1	0xbd8ad308	-0.06778532
2	0xbd7b34fc	-0.061329827
3	0xba45b898	-0.000754246
4	0xbd050b86	-0.032481693
5	0xbd958cad	-0.073022224
6	0x3d03bed8	0.032164425
7	0xbc9d4206	-0.019196521
8	0x3d0923d7	0.033481445
9	0x3d8821b8	0.06647056
10	0x3b1630ea	0.0022917339
11	0xbce860a4	-0.028366394
12	0x3d7982c2	0.060915716
13	0xbc0b32bd	-0.008495984
14	0x3c2f35d8	0.01069399
15	0xbd9cd039	-0.07656903
16	0xbd1588cf	-0.036507424
17	0x3e4dd78f	0.2010176
18	0xbbc71fff	-0.0060768123
19	0x3c0c5d74	0.008567203
20	0xbc8b98f7	-0.017040713
21	0xbd369546	-0.044575952
22	0xbda35aa6	-0.07976274
23	0xbcbff67e	-0.023432966
24	0x3b7f372e	0.0038942802
25	0xbd7507ee	-0.059822015
26	0x3e17e455	0.14833196
27	0xbc07e54b	-0.008294414
28	0x3cff2457	0.031145258
29	0xbe046f01	-0.1293297
30	0xbccaa16c	-0.024735175
31	0xbd4c7db2	-0.04992456
32	0x3b9129f7	0.0044300514
33	0xbc1ac9bd	-0.009447512
34	0x3db4ec37	0.08834117
35	0xbcf941c7	-0.030426873
36	0xbd962b47	-0.07332473
37	0xbd6b507b	-0.0574498
38	0xbdc83838	-0.09776348
39	0xbc6872d9	-0.014187538
40	0x3dc13351	0.09433616
41	0x3c8d8e8b	0.017279884
42	0xbd9910f1	-0.074739344
43	0xbd397a2b	-0.045282524
44	0xbe53a2c7	-0.20667563
45	0xbc0a49bf	-0.008440434
46	0xbd4a50b2	-0.049393363
47	0x3c0ef00d	0.008724225
48	0x3e5061fb	0.20349877
49	0x3e0c5a83	0.13706402
50	0x3e160106	0.14648828
51	0x3dc0a3d1	0.094062455
52	0x3af792d8	0.0018888367
53	0xbd9704e5	-0.073739804
54	0x3c53f66e	0.012937171
55	0xbb02ebd4	-0.001997699
56	0x3d0c5ef1	0.03427023
57	0xbc289b9d	-0.010291007
58	0xbd9beedd	-0.07613919
59	0xbc836df3	-0.016043639
60	0xbd44e198	-0.048066705
61	0xbd9dd55e	-0.07706712
62	0xbd39d260	-0.045366645
63	0x3e599aa3	0.21250395
64	0xbd3f2b9f	-0.04667246
65	0xbdbf343a	-0.09336133
66	0x3dc4a421	0.096016176
67	0xbce0f4ee	-0.027460542
68	0x3e273fbf	0.16332911
69	0xbda4f9f0	-0.08055484
70	0xbd38ec90	-0.04514748
71	0xbd9a97f9	-0.07548518
72	0xbd7dc826	-0.061958455
73	0x3dd1012f	0.10205304
74	0xbcbb0aff	-0.022832392
75	0xbde449c2	-0.11146881
76	0xbe6f56e1	-0.23372985
77	0x3d11a958	0.03556189
78	0xbd8a0ca8	-0.06740695
79	0x3d95b8b8	0.07310623
80	0xbe4084f3	-0.18800716
81	0x3e89d105	0.26917282
82	0xbd0c749a	-0.034290887
83	0xbc85cdfe	-0.016333576
84	0x3da632e1	0.08115173
85	0xbd48ec16	-0.049053274
86	0xbda26c65	-0.07930831
87	0x3d45893a	0.048226573
88	0xbd021f63	-0.031768214
89	0xbdacfefd	-0.08447073
90	0xbd4d0d35	-0.050061423
91	0xbda56d24	-0.080774575
92	0xbd943461	-0.07236553
93	0x3d7164ac	0.0589339
94	0xbd99aa78	-0.075032175
95	0x3ceca434	0.028886892
96	0x3ce8c049	0.028412001
97	0xbd357178	-0.044297665
98	0x3c0009d0	0.0078148395
99	0xbcf3139a	-0.029672433
100	0x3e04f682	0.1298466
101	0x3e13f2cd	0.1444809
102	0xbebe66fe	-0.37187952
103	0xbd6fb336	-0.05852052
104	0x3cf34a85	0.02969862
105	0x3e65ad83	0.2242947
106	0x3cd1ef15	0.025626699
107	0xbe0d7c1f	-0.1381688
108	0xbe649f59	-0.22326411
109	0xbdaca509	-0.084299155
110	0xbd3c8968	-0.04602948
111	0xbe637f22	-0.22216466
112	0x3e6e3be6	0.23265037
113	0x3e532fbe	0.20623681
114	0xbdbf48d2	-0.09340061
115	0xbdb5b19a	-0.088717654
116	0x3cc31d61	0.02381772
117	0x3dca7e23	0.0988734
118	0xbd049383	-0.03236724
119	0xbda8fa52	-0.0825087
120	0x3d75aea2	0.059980996
121	0x3d9d2950	0.07673895
122	0xbd7bd577	-0.061482873
123	0xbc597f7d	-0.0132750245
124	0xbd9898cc	-0.07451019
125	0x3c9fee23	0.019522732
126	0xbd1d5ec5	-0.038420457
127	0xbdaccea6	-0.084378526

fc4.weight f4 [32, 128]
0	0x3e27ebe4	0.16398579
1	0xbdf146ea	-0.11781104
2	0xbd4159fa	-0.04720495
3	0xbb81836c	-0.0039524343
4	0xbbfc3b34	-0.0076974872
5	0xbd4fb658	-0.050711006
6	0xbccdca19	-0.025120782
7	0xbcee7d4e	-0.029112484
8	0x3d4faf27	0.050704148
9	0xbe7e4247	-0.2482997
10	0xbdceee1e	-0.10104011
11	0xbce17cc9	-0.027525323
12	0x3d751a7e	0.059839718
13	0x3d2e2b82	0.04252196
14	0xbe0e85d9	-0.13918246
15	0xbbf81144	-0.0075704176
16	0x3d4f32ad	0.050585438
17	0x3de83f13	0.113401555
18	0x3a240d31	0.0006258069
19	0x3ee1e390	0.4411893
20	0xbd322a3a	-0.0434973
21	0x3d78ad9b	0.060712438
22	0x3d4162c6	0.04721334
23	0xbe014320	-0.12623262
24	0xbe0b33ac	-0.1359393
25	0xbcca524d	-0.024697447
26	0x3ee91dd7	0.45530578
27	0x3da34987	0.079730086
28	0xbccb80fe	-0.024841782
29	0xbe87a755	-0.26494852
30	0xbd65350c	-0.055958793
31	0xbd4f719a	-0.05064545
32	0xbe54ec44	-0.20793253
33	0xbe66e0f1	-0.22546746
34	0x3df8716d	0.12131009
35	0x3d4099d9	0.04702172
36	0xbd8c47bd	-0.068496205
37	0xbd85052f	-0.06495129
38	0xbdf302ba	-0.118657544
39	0x3d777027	0.06040969
40	0x3da859a9	0.08220226
41	0x3eb1b666	0.3470947
42	0x3c53c2c7	0.0129248565
43	0xbda711ab	-0.08157667
44	0xbdba5720	-0.09098649
45	0x3c78953f	0.015172302
46	0xbd2d3672	-0.04228825
47	0xbe85ed09	-0.26157406
48	0x3e98ac91	0.29819158
49	0xbcf32db4	-0.029684879
50	0xbe5447f0	-0.20730567
51	0x3eb0975c	0.34490478
52	0x3daf7763	0.08567693
53	0x3d03b6f6	0.032156907
54	0x3cd13ab6	0.02554069
55	0xbd56e1b8	-0.052461356
56	0xbd230ee1	-0.03980911
57	0xbe1a38a9	-0.15060677
58	0xbd31488d	-0.04328208
59	0x3d138cf4	0.036023095
60	0x3d596807	0.053077724
61	0x3cf383d6	0.02972595
62	0x3cf81d23	0.030287331
63	0x3e49f855	0.19723637
64	0x3cbc7150	0.02300325
65	0xbd62be18	-0.05535707
66	0x3d150989	0.036386047
67	0xbd9d0dd2	-0.07668652
68	0x3e0ecac5	0.13944538
69	0xbe1b75cc	-0.15181655
70	0x3d615926	0.05501666
71	0xbe599910	-0.21249795
72	0xbd3352ea	-0.043780245
73	0x3e1d33a8	0.15351737
74	0x3d8c6d75	0.06856815
75	0xbdbdc0fa	-0.09265323
76	0xbe404f09	-0.1878015
77	0x3ddfaa63	0.109211706
78	0x3d8b3379	0.06796927
79	0xbd2e7e43	-0.04260088
80	0x3c68bf19	0.0142057175
81	0x3d69a7c6	0.057044767
82	0x3d1769a4	0.03696598
83	0xbd0f642f	-0.035007652
84	0x3efdf7cf	0.49603125
85	0xbe2c6050	-0.16833615
86	0x3db32be6	0.08748607
87	0x3e3f3acb	0.18674771
88	0xbd8504d7	-0.06495064
89	0xbe7c0aa2	-0.24613431
90	0xbc8ae451	-0.016954573
91	0xbb830ea4	-0.003999548
92	0xbd5418bf	-0.051781412
93	0x3c799628	0.015233554
94	0x3d744ff0	0.059646547
95	0x3da22fde	0.07919286
96	0xbdef6506	-0.116891906
97	0xbd61cfb1	-0.05512971
98	0x3d14d20c	0.03633313
99	0xbd972d53	-0.07381692
100	0xbde690da	-0.11258097
101	0x3d8c4419	0.06848926
102	0xbdea4a27	-0.11439925
103	0xbe0e3ee0	-0.13891172
104	0xbd4e615f	-0.05038583
105	0x3e095953	0.1341298
106	0xbe7e11bc	-0.24811453
107	0xbe00c0e7	-0.12573586
108	0xbe84a160	-0.2590437
109	0xbda3d24e	-0.07999097
110	0x3d761fe6	0.060089014
111	0x3d915535	0.0709633
112	0x3db90456	0.0903403
113	0x3e65f77a	0.22457686
114	0xbe467143	-0.19379143
115	0xbe8fa460	-0.28055096
116	0x3d624f5f	0.055251475
117	0x3d670a73	0.05640645
118	0xbb0f876c	-0.0021900786
119	0x3cbd3e56	0.023101013
120	0x3ec45778	0.38347983
121	0x3e1bd321	0.15217258
122	0xbea18449	-0.31546238
123	0xbdd53953	-0.10411324
124	0xbd63dd92	-0.055631228
125	0x3d900d03	0.07033732
126	0xbbf9c123	-0.0076219006
127	0xbdd675eb	-0.1047171
128	0x3dc00801	0.093765266
129	0x3c4d0f19	0.012515807
130	0x3d95b5e1	0.07310081
131	0xbd47ca17	-0.048776712
132	0xbcbdc935	-0.023167232
133	0x3cab0d2f	0.02088031
134	0xbcc19723	-0.023631638
135	0x3d36324f	0.04448157
136	0x3d3bf461	0.045887355
137	0xbd97a909	-0.07405288
138	0x3dcc1899	0.09965629
139	0x3d9340e7	0.071901135
140	0xbbb35b67	-0.0054735425
141	0xbd9a4b3c	-0.07533881
142	0xbc96632a	-0.018357832
143	0x3d05f00d	0.032699633
144	0xbb1335b8	-0.0022462439
145	0x3e6c275b	0.23061888
146	0x3ca038a9	0.019558268
147	0xbd6c0633	-0.0576231
148	0xbcb8f1ac	-0.022576176
149	0x3cb0181a	0.021495868
150	0xbd24cb5d	-0.040233005
151	0xbdbb8ad7	-0.09157341
152	0x3e0313a7	0.12800466
153	0x3d6c48ca	0.057686605
154	0x3e3be828	0.1835028
155	0x3c86df5c	0.016463928
156	0x3d39517f	0.045243736
157	0xbe1f510d	-0.15558262
158	0x3d3f8974	0.046761945
159	0x3d386802	0.045021065
160	0xbdf64db2	-0.12026538
161	0xbcc819c0	-0.024426341
162	0x3e8d4f60	0.2759962
163	0xbc370630	-0.011170909
164	0xbd9f2b46	-0.07771926
165	0x3d8306b3	0.06397762
166	0x3df0989a	0.117478564
167	0xbd065613	-0.03279693
168	0xbc94043b	-0.018068423
169	0x3e8860f0	0.26636457
170	0xbcac9e32	-0.021071527
171	0x3bacbb5d	0.005271359
172	0x3c326448	0.010888167
173	0xbd0edcbb	-0.034878474
174	0x3d9b434b	0.075811945
175	0x3c9f8573	0.019472813
176	0x3ea1c700	0.31597137
177	0x3e12909e	0.1431298
178	0xbec77d0a	-0.38962585
179	0x3e2404da	0.16017476
180	0xbd52a6fa	-0.051428773
181	0x3b8b1304	0.00424421
182	0x3d4b4e4a	0.04963521
183	0x3b514701	0.003193319
184	0x3dadb90e	0.08482562
185	0x3cd30111	0.025757344
186	0xbcf64959	-0.030064272
187	0x3d0c7d77	0.03429934
188	0xbc1490fe	-0.009067772
189	0xba10c4e1	-0.00055225013
190	0xbd563c6e	-0.052303724
191	0x3ecc350e	0.39884228
192	0xba98d7e2	-0.0011661018
193	0xbd80986e	-0.06279074
194	0x3e2e1bb5	0.17002757
195	0x3dd5e92c	0.10444865
196	0x3e57a95d	0.210607
197	0x3c8c4237	0.017121417
198	0x3d1844da	0.037175037
199	0xbe03d1f1	-0.12873055
200	0x3db2d842	0.08732654
201	0x3dadd1ff	0.08487319
202	0x3c24aaf4	0.010050524
203	0x3d25b552	0.040456124
204	0xbe8121cd	-0.252211
205	0xbdb70539	-0.08936543
206	0x3d6e6426	0.058200978
207	0x3e25dc49	0.16197313
208	0xbce749fe	-0.028233524
209	0x3db25021	0.087066896
210	0x3ba89af4	0.005145425
211	0xbd842eed	-0.06454263
212	0x3ecda532	0.40165097
213	0xbd3f5433	-0.046711158
214	0xbd172a10	-0.03690535
215	0x3e96edeb	0.29478392
216	0xbcdd844b	-0.027040621
217	0x39a76df1	0.00031934635
218	0x3dd73e51	0.10509933
219	0xbd679630	-0.056539714
220	0x3dca40a0	0.098756075
221	0xbc1462f9	-0.0090568
222	0xbda492c6	-0.08035807
223	0x3d12e3f8	0.03586194
224	0x3e2df710	0.16988778
225	0xbcfa1d0f	-0.030531434
226	0x3b811009	0.003938679
227	0x3d5fe89b	0.05466519
228	0x3e746818	0.23867834
229	0x3c3f10db	0.0116617335
230	0xbd28e6db	-0.041235786
231	0xbe10c964	-0.14139324
232	0x3da4ddb9	0.08050103
233	0x3e5d8d3f	0.21635912
234	0x3d5f7a6f	0.05456012
235	0xbe36f8bf	-0.17868327
236	0xbe36aa61	-0.17838432
237	0xbcb6bea5	-0.022307703
238	0x3df2d2a1	0.118565805
239	0x3e884e34	0.26622164
240	0xbe979c0f	-0.2961125
241	0x3e041112	0.12897137
242	0xbe12c6c6	-0.14333639
243	0x3c89c21f	0.016816197
244	0xbd998f9d	-0.07498095
245	0x3d9576ec	0.07298073
246	0xbe116fc2	-0.14202788
247	0x3c56c662	0.013108822
248	0x3f118375	0.5684121
249	0x3e4ee4b9	0.20204438
250	0xbddea30a	-0.10870941
251	0x3cc1c347	0.023652686
252	0x3db4f455	0.08835665
253	0xbdd9a984	-0.10628036
254	0xbd652ccb	-0.05595092
255	0xbd6a8211	-0.057252947

fc4.bias f4 [32]
0	0x3e2dcafe	0.16971967
1	0x3da70025	0.081543244
2	0x3e6776da	0.22603932
3	0xbdf39005	-0.11892704
4	0x3dc7a0c3	0.0974746
5	0x3c2864b6	0.010277918
6	0x3c0ccb7c	0.008593436
7	0xbd2d8558	-0.042363495
8	0x3db22458	0.08698338
9	0x3cb8f565	0.02257795
10	0xbda7dd7f	-0.08196544
11	0xbd9ba5c4	-0.07599977
12	0xbda33ccf	-0.07970583
13	0xbcc9ad8b	-0.024618885
14	0xbdae09f1	-0.0849799
15	0xbcef37a5	-0.029201338
16	0xbda69df6	-0.081355974
17	0xbdf225ca	-0.11823614
18	0xbd043233	-0.032274436
19	0xbdd1fe0b	-0.10253533
20	0xbd999507	-0.07499128
21	0x3d91bc40	0.07115984
22	0xbadcaeb2	-0.0016836731
23	0x3b2bfaf1	0.0026242102
24	0xbdb2e66d	-0.087353565
25	0xbd930c35	-0.07180063
26	0x3e26581d	0.1624455
27	0xbba5434a	-0.005043422
28	0x3e1e3006	0.15448007
29	0x3d658cbd	0.05604242
30	0xbd4c3d5f	-0.049863216
31	0x3e8ee03d	0.27905455

fc5.weight f4 [4, 32]
0	0x3ec0d0c1	0.37659267
1	0x3df2f619	0.11863346
2	0x3f185ef1	0.5951987
3	0xbe5ea232	-0.2174156
4	0xbe8b004a	-0.27148658
5	0xbdb06eb1	-0.08614863
6	0xbe997111	-0.29969075
7	0xbe4dca36	-0.20096669
8	0x3e9e4c58	0.3091762
9	0xbe413608	-0.18868268
10	0xbe14ffca	-0.14550701
11	0x3dfba4b0	0.12287271
12	0x3f13c340	0.577198
13	0x3e1b37f7	0.15158068
14	0xbdc917b7	-0.09818976
15	0xbe9194e8	-0.2843392
16	0xbd501c26	-0.050808094
17	0xbe89557d	-0.26823035
18	0xbe34223e	-0.17591187
19	0x3ef4fc8e	0.47848934
20	0xbdf562c3	-0.11981728
21	0x3ead8744	0.33892262
22	0xbcfff39a	-0.031244088
23	0x3da41a6e	0.080128536
24	0xbda7c830	-0.081924796
25	0xbdcf09d5	-0.10109297
26	0x3eee2315	0.4651114
27	0x3ed72955	0.4202372
28	0x3d7b6e26	0.061384343
29	0x3e37837c	0.17921251
30	0xbe365f15	-0.17809708
31	0x3ee1281f	0.43975922
32	0x3ebb167e	0.36540598
33	0xbe266052	-0.16247681
34	0x3f374571	0.71590334
35	0xbe2d743d	-0.16938873
36	0xbea4ffdb	-0.32226452
37	0x3b64f104	0.0034933696
38	0xbe7baaed	-0.24576922
39	0xbebfac34	-0.37436068
40	0x3e873d3a	0.264139
41	0xbe9198b1	-0.28436807
42	0xbd2ca26f	-0.042147096
43	0xbdc724eb	-0.097238384
44	0x3d95a0fb	0.07306095
45	0xbbf828a8	-0.007573206
46	0x3db2473c	0.08704993
47	0x3bd997ac	0.006640395
48	0xbe3969ee	-0.18106815
49	0xbe835bd6	-0.25656003
50	0xbe58f57e	-0.21187398
51	0x3f116e1c	0.5680864
52	0x3e10f857	0.14157234
53	0x3ea72d92	0.32651955
54	0xbe3c0572	-0.18361452
55	0x3d978a1a	0.07399388
56	0xbe37a533	-0.17934112
57	0x3e0be4ce	0.13661501
58	0x3ea82271	0.32838777
59	0x3eefcc0f	0.46835372
60	0x3edc21a2	0.4299441
61	0x3d4a573e	0.049399607
62	0xbdbe276b	-0.09284862
63	0x3ebfacff	0.37436673
64	0x3ec61324	0.38686478
65	0x3eb16c60	0.34652996
66	0x3f0dd033	0.5539581
67	0xbec9d34d	-0.39419022
68	0x3da71d90	0.081599355
69	0x3e000853	0.12503175
70	0xbe783930	-0.24240565
71	0xbd74c4b6	-0.05975791
72	0x3e9a5457	0.3014247
73	0xbe4e2b1d	-0.20133634
74	0x3e0f2b04	0.13981253
75	0x3e1e2902	0.1544533
76	0x3ee27a89	0.44234112
77	0x3dc1597d	0.09440897
78	0xbda32365	-0.07965735
79	0xbe88175e	-0.26580328
80	0xbe8be75a	-0.27324945
81	0xbdd72f04	-0.105070144
82	0xbe967064	-0.29382622
83	0xbec9036e	-0.3926043
84	0x3e256012	0.16149929
85	0x3eae0651	0.33989194
86	0xbe74b3ec	-0.2389676
87	0x3d8ae913	0.06782737
88	0xbd2c5b50	-0.04207927
89	0xbcab361a	-0.020899821
90	0x3eda5ea7	0.4265034
91	0x3ef76264	0.48317254
92	0x3e9a2034	0.30102694
93	0xbd888394	-0.066657215
94	0xbe660cfd	-0.22465892
95	0x3e840b0d	0.2578968
96	0x3e8877ac	0.26653802
97	0x3e8a5304	0.2701646
98	0x3ef96dbc	0.48716533
99	0xbe14a688	-0.14516652
100	0xbe2e29e2	-0.17008165
101	0xbe89135f	-0.2677259
102	0xbc7999cb	-0.015234421
103	0xbda9b5ec	-0.08286652
104	0x3eba15d7	0.36344787
105	0xbe8a4ed6	-0.27013272
106	0xbe2d572b	-0.16927783
107	0x3dc7f12f	0.09762799
108	0x3f26512f	0.64967626
109	0xbdd4dd96	-0.10393827
110	0xbbd7e471	-0.0065885116
111	0xbe8ea811	-0.278626
112	0xbeab7e0c	-0.33494604
113	0xbe391322	-0.18073705
114	0xbdd270e6	-0.1027544
115	0x3e8b5db8	0.2721994
116	0xbd1df675	-0.038565118
117	0x3ec189d1	0.37800458
118	0xbe57b8c0	-0.2106657
119	0x3e1be9e7	0.15225945
120	0x3d23c2fe	0.03998088
121	0x3deb0a97	0.11476629
122	0x3efecfaf	0.49767825
123	0x3ed932ed	0.42421666
124	0xbd2dec03	-0.042461406
125	0xbe1984f8	-0.1499213
126	0xbe7a2634	-0.24428636
127	0x3f0ccd89	0.5500112

fc5.bias f4 [4]
0	0x3e7367fc	0.23770136
1	0x3e76d942	0.24106315
2	0x3c746b71	0.014918194
3	0xbd60a310	-0.05484301
